turtlebot3_dqn/save_model/stage_1_final_dqn_11-24.pth (torch, 67323 bytes, 4 tensors)

fc.0.weight f4 [512, 26]
00000000: eab1 cdbd 2302 813d 5049 04bd 1470 09be
00000010: 7545 01be 6846 8f3d 380d 06bd 910b 99bd
00000020: 0373 a6bd fbb7 5c3d d842 a2bd c989 2fbc
00000030: e8fb 31bd 4ecd 54be be82 ce3d 938c 7bbe
00000040: 8593 ce3d 1893 80be 66a4 02bc 459c 86be
00000050: e549 8abe b614 143e 0dff 72be 58c1 61be
00000060: 109d 76bd 7e74 01bd cace fa3d a5de fbbd
00000070: fb4f 59be d1fd c53c 3fa6 2a3e 432d 17be
00000080: 75af 253e 22ac a43e 8c61 113e 69bc 8f3e
00000090: 57f5 8cbe ca2d b7bd 292f f93c 3f86 303e
000000a0: bbd5 c2bd 13a7 cdbe dcbf 2ebe 132a af3c
000000b0: 53c9 5e3d f849 353e 5b32 de3e dfdd d43c
000000c0: a490 ef3d 9632 fdbc 1522 0240 847b 1abe
000000d0: 33cc 243f 0e19 283f 488e bd3e c181 733e
000000e0: ea14 b23d 8b3c b63e 9c33 f73e f609 033f
000000f0: 2b56 cc3e a0ce 5a3e 65a6 ac3e 266b 973d
00000100: 93b6 ef3e c390 ef3e 381e 993e 9e70 043f
00000110: d2dc 1d3f cfc6 1b3f e55e e23e c4b6 1e3f
00000120: ed51 4c3f e1c6 2d3f 0408 4c3f 5922 193f
00000130: 0b7d 25be 7fd0 813e 8985 9c3e e348 253f
00000140: 315a 143f fbc9 7c3e 4d6c ec3e ba09 d83e
00000150: cc08 393c 25a8 613e 0a2d 563e 1170 023f
00000160: 2cfa 123f 5700 b13e 67a9 333e 8ace 2e3e
00000170: c2b0 913e e410 f93e 19ed 2a3f b093 a13e
00000180: 8c2b 3b3f 02fe 413f b7e2 f53e 8501 653f
00000190: 06dc 953e 16d3 223f ef67 6b3d 4ad3 cf3e
000001a0: 619c 73bf 5dc4 56be 25c6 0d3e 5418 bd3b
000001b0: 7f72 0dbe 11bd 153e 8528 bf3e 2c5d 5c3e
000001c0: 2dc3 f73e ff58 fd3e 3e58 333d 1d86 3c3e
000001d0: b3e7 bf3e fe05 023f bbf0 a5bd 1156 5b3c
000001e0: 40d1 203d d4ba 92be f4c9 9dbe b726 74bf
000001f0: db1a d0bf 95a6 d3bf 5b9e 9ebf ba5f 8fbf
00000200: afd8 bfbe a878 c13e 145e d2bf bc20 d7bf
00000210: 1139 53bf c57e 04bf 2b1c b4be d9cd 4bbe
00000220: 1cf9 683e 05e9 86bd 2e2c 373d 16a1 e83e
00000230: 9293 0e3f 5817 06be 7376 953e 3df0 cf3e
00000240: ab85 263f 27c0 163f 3d30 c53e b704 313c
00000250: 8963 7bbe d7b9 0ebe 9bcc 75bd c4c5 19bf
00000260: 696d bebf 4ba4 debf c93b f33e f25a 323e
00000270: 7d53 9fbf 04b7 6ebf 00a1 9ebe 3e67 29bf
00000280: 7634 0ebf 05c8 cebe d974 87bd 2866 64be
00000290: 4fa0 c93e 0ce5 0b3f 272d 163e abe6 6d3e
000002a0: 12d5 bd3e 0efe 893e 2ca6 c83e f73c b43e
000002b0: a674 34be 6fc9 5c3d 4c12 c4bd 1fbd c1be
000002c0: 3375 edbd bc4a 7dbf de15 9cbf e8b8 a8bf
000002d0: 03c3 bbbd e295 323f dd22 cd3e 78e9 a6be
000002e0: fa18 9ebe dcc5 d0bc b6cc adbd 1c52 91bd
000002f0: 9abf 8d3e a723 bbbd 2ae0 f1bd 5afa 3b3d
00000300: cedf debe 75a7 f4be 1af9 6abd 476b 133e
00000310: bfbd 5b3e 1ccd 723e 44c6 373c 0ef3 5cbe
00000320: 660a 66be 3059 c13d 8356 8d3e 8ccf 8ebd
00000330: 8756 3d3e af40 4b3c 1bd6 e03f dfa3 04bf
00000340: 6ce5 7b3e 1190 5bbe 6d2b 81be f7a7 83be
00000350: 610c 1dbe a31b ef3d 3195 64bc 7e44 583e
00000360: b3fe 94be f2ae ecbd cd30 3bbe da96 bdbe
00000370: a1d4 e8bd a6f5 59be d8b4 dd3d 4bf7 803d
00000380: 1ba4 583e 883c b5bc 9971 55be afa0 073d
00000390: 2419 a83e 167a 43bc 031a 7cbc 4606 4d3e
000003a0: 6063 f13f 8628 05bf 2eb0 7a3e 260f afbe
000003b0: f3a7 95be c560 11be c562 8ebe 25b5 0cbc
000003c0: c444 463e 24cb 0f3e bec7 f03d 8243 05be
000003d0: 2d1e aabe e809 b9be 1998 973e 3364 da3e
000003e0: fd70 433e 1e11 17be f4d4 a0be 180a 48be
000003f0: afb1 09be 7a2a fc3d c5b6 023d 2196 be3e
-0.100437 0.06299236 -0.03229648 -0.1342166 -0.12624152 0.06995851 -0.03272745 -0.07472909
-0.081274055 0.053886395 -0.07922906 -0.010714003 -0.043453127 -0.20781443 0.10083531 -0.24565344
0.10086731 -0.25112224 -0.007973766 -0.262911 -0.27009502 0.14461026 -0.23730107 -0.22046411
-0.06020838 -0.031605236 0.12246473 -0.122983254 -0.21221916 0.02416888 0.1666498 -0.1476336
0.16180213 0.32162577 0.14197367 0.28073433 -0.2753093 -0.089442804 0.030417996 0.17238711
-0.09513422 -0.4016653 -0.17065376 0.021382367 0.054391216 0.17703998 0.43397793 0.025984703
0.1169751 -0.03090791 2.0333302 -0.1508618 0.64374083 0.6566323 0.37022614 0.23779966
0.08695395 0.35593066 0.48281562 0.51187074 0.3990949 0.21367884 0.337207 0.07393484
0.4681898 0.46790132 0.29905868 0.5173434 0.6166507 0.6085023 0.44213024 0.6199763
0.7981251 0.6788159 0.7969973 0.59818035 -0.16160981 0.25354382 0.3057063 0.6456434
0.5795012 0.24686424 0.46176377 0.4219492 0.011293601 0.22036798 0.20915619 0.5095225
0.5741298 0.34570572 0.1754509 0.17070976 0.28455168 0.486457 0.6676803 0.3155799
0.7311332 0.7577821 0.48024532 0.89455444 0.29269427 0.6360334 0.057472166 0.40590888
-0.9516049 -0.20973344 0.13845117 0.0057707224 -0.13813208 0.14622904 0.373356 0.21519917
0.48391095 0.4948196 0.043785326 0.18410535 0.3748146 0.50790393 -0.08102556 0.013387219
0.039262056 -0.28658164 -0.3081814 -0.95371574 -1.6258196 -1.6535212 -1.2392076 -1.1201088
-0.37470004 0.37787366 -1.643496 -1.6806865 -0.8250895 -0.51755935 -0.3517774 -0.19902743
0.22751278 -0.06587414 0.044719867 0.454354 0.55693924 -0.13094842 0.29191932 0.40612975
0.6504771 0.5888695 0.38513365 0.010804347 -0.24549688 -0.1393808 -0.06000958 -0.6006739
-1.4877139 -1.7393888 0.4750655 0.17417505 -1.2447354 -0.9324801 -0.30982208 -0.6617316
-0.555488 -0.40386978 -0.06614084 -0.22304595 0.39380118 0.5464637 0.14665662 0.23232524
0.37076622 0.2695164 0.3918928 0.35202762 -0.17622623 0.05390304 -0.09573802 -0.378396
-0.115946196 -0.9894216 -1.2194173 -1.3181429 -0.09168055 0.69759953 0.4006566 -0.32599998
-0.3087843 -0.025484972 -0.08486311 -0.07095739 0.27685243 -0.091376595 -0.11810334 0.04589305
-0.43530124 -0.4778401 -0.057366468 0.14396392 0.21459101 0.23711056 0.011216704 -0.21577093
-0.22464904 0.09440839 0.27605066 -0.0697318 0.18490039 0.0124055585 1.756534 -0.5181255
0.24599236 -0.21441676 -0.25228444 -0.25714085 -0.15336753 0.11675193 -0.013951586 0.21119878
-0.2910057 -0.11556806 -0.18280335 -0.37029153 -0.11368681 -0.21285114 0.10825509 0.062971674
0.21156351 -0.02212359 -0.20844115 0.033112224 0.3283168 -0.011930963 -0.015387061 0.20021924
1.8858452 -0.5201496 0.2448127 -0.34191245 -0.29229698 -0.14197071 -0.2780973 -0.00858811
0.1936217 0.14042336 0.11756848 -0.13014033 -0.33226147 -0.3614037 0.2960823 0.4265457
0.1908607 -0.14752623 -0.3141247 -0.195351 -0.13446687 0.12312789 0.031912584 0.37223914

fc.0.bias f4 [512]
00000000: 81ee 1a3e 16fa 793d 41e6 e33e dadb 163f
00000010: 9291 003f 44bd c63e a048 0b3e 7a76 c0ba
00000020: 4ca3 c33e 75b5 bb3e a1e3 86bd 4f9e 893e
00000030: dace 7d3d 95a0 e43e 07ed f2bd 543f 433d
00000040: ac54 763e 024b 003e 9c63 8d3e 85b9 273f
00000050: 6c48 673e 0eed 233f c9d3 dd3e bb0d 7ebb
00000060: 4457 0c3f 9e1f f83e 5ecc 05be 6303 1b3f
00000070: efef d8bd 9bf7 b53d 2282 2c3e b6a6 263f
00000080: 33ce 393f b0da e83e 4fa8 4bbe e51e 843c
00000090: cd62 fa3e fbe4 e5bc c42d 343f a3f2 32be
000000a0: 80c6 74bc 2eac 963e 9308 af3e 2553 ed3e
000000b0: fe6a e5bd 0564 cc3e 568d 943e 8822 d03e
000000c0: ab89 b93e 3640 ee3e b615 1b3f df6a f43e
000000d0: b8c7 a93e b1b0 c33e ef65 0a3f 6302 c03d
000000e0: f285 393f 9bfe 49be 88a1 4b3e 3c24 0fbd
000000f0: 4524 91be f438 f13d ec26 f43e 28d9 c13e
00000100: 1cbb ef3e 9f3a dd3e 4505 cf3e d5a8 983e
00000110: 9deb 5bbe f231 cabd 21d7 0c3d e40e 733e
00000120: 32d4 fd3c 9442 963e 7957 18bd bf24 803e
00000130: 9bd4 5d3e d48d c83e 3d37 043f 5f55 d63d
00000140: 91fa 9b3e a814 eb3e 4857 6d3e 8475 8c3e
00000150: 320f dc3e d77c 803e 52e9 1a3e f90d 843e
00000160: 2f43 243f 7595 05bd 796a 113f e9f2 d23e
00000170: f17a 183f 8829 b63c 5255 033e 5933 1e3f
00000180: f168 e03e 0f63 333f 85d3 eb3e 3f01 543e
00000190: e0c3 b53e b7b1 c83e bb1a 8d3e 1e4c d83e
000001a0: b9f5 243f 192e d9bc 9d14 e13d 1bf1 38be
000001b0: a8d1 dd3e 4078 253e c51d 91bd 86cb 9a3e
000001c0: 651b 983e 5c21 9bbc c88b 913c d9c6 b03e
000001d0: d0a9 6ebd 23f8 f43d fa19 093e a151 993d
000001e0: baa0 b33d 78b0 d4bd 1e3d a93e d6c3 15be
000001f0: 6f68 14be 16f7 0a3f a47d f23e 005d 1d3d
00000200: 99d4 83bd ef28 873e 1b8b 1c3d 4241 213e
00000210: 1b56 00be 44ed 8e3d 264d ef3e 723a dd3e
00000220: 8ad7 3a3f c603 a33e e389 1e3f 3792 413e
00000230: b38f 093b 1068 2b3e a9c9 2dbe e674 fe3e
00000240: 1de9 d5bd 7bfb ca3e 1f96 9cbd dc54 6c3e
00000250: 6a5b 123f eb6f 8b3e 5f6e dc3e b03d 3e3f
00000260: be1e 323e 2493 043f 3ed8 9bbc 3f8c 1a3f
00000270: d60c 0c3f 73b5 3b3f 31ee 723e 47a4 90bd
00000280: 9cd7 c43e 4eb3 183f a63f 803d 96cf b73e
00000290: 86c1 863d c91b 863c 7e2b 8d3d 9b28 5abc
000002a0: 8c36 aa3e cb2e 213f 7912 14be 21d8 9f3d
000002b0: 9ce8 4c3f 24be 113f 4718 72bd 4802 7cbd
000002c0: 6c21 423e 0012 b13c 6fd8 b93c cb8b 0dbe
000002d0: d05f 813e 8eff 9e3e 5cb6 043f b771 e93e
000002e0: 033a c23e fd92 4d3d 4ccb d03e 6f70 883d
000002f0: a161 843e 4467 bd3e a2ea 153e 32eb bc3e
00000300: a473 0a3f c705 2c3e bdc5 c63d 226b e33e
00000310: 46e2 a93e 6222 17be f6c5 ce3e 30a8 063f
00000320: e9f7 1fbe 5ae3 5c3e f220 373f 7bd5 9abc
00000330: 26ea c43e 21d4 de3e 6b5b f03e 6141 9f3e
00000340: b737 993e 62d9 d43d 9786 fe3e a921 3a3e
00000350: 21b2 983e f85c 0a3c a391 6c3e b96a f53e
00000360: 8bbc a63d 6260 0a3f ef3a b93d 4d5d 113e
00000370: 3c5f 0b3f 3d0b 063f a083 b53e 8130 e23e
00000380: abec 083f 97f6 b13e 95ce ec3d 50a9 68bd
00000390: 1c58 9b3e d323 053f 1e12 183f 8955 28be
000003a0: 921f cc3e a004 203f ec5e e63e 693a f13e
000003b0: c1e7 983e e86c 123f 3c69 5fbe beef 3dbe
000003c0: bd86 043f 2fc8 cb3e 8a51 1ebe a25c 083f
000003d0: 1acd 223f 1da5 323e 3dd0 0c3f 4f81 f23e
000003e0: 01cc 943e b0d9 093f e057 a53e 2d67 e43e
000003f0: 504f e13e ab00 423e 8f46 a53e a612 d63e
0.15130045 0.061029516 0.44511607 0.58929217 0.5022212 0.38816273 0.13601923 -0.0014683746
0.38210523 0.36661878 -0.065863855 0.26878592 0.061964847 0.44653764 -0.11861616 0.047667816
0.24055737 0.12528613 0.27615058 0.65517455 0.2258622 0.6403359 0.43325642 -0.0038765508
0.54820657 0.48461622 -0.13066241 0.6055204 -0.10592639 0.088851176 0.16846517 0.6509813
0.7258026 0.45479345 -0.19888423 0.016128013 0.48903504 -0.028063288 0.7038233 -0.17475371
-0.014939904 0.29428238 0.3418623 0.46352497 -0.11202048 0.3992006 0.2901408 0.40651345
0.36237845 0.46533364 0.60580003 0.47737786 0.33160186 0.38220742 0.5406179 0.09375455
0.7247001 -0.1972603 0.19885838 -0.034946665 -0.28347984 0.11778441 0.47685945 0.3786099
0.4682244 0.43208787 0.40433708 0.2981631 -0.21476598 -0.098728076 0.03438485 0.23736149
0.030984972 0.2934767 -0.037192795 0.25028035 0.21663134 0.39170706 0.51646787 0.10465502
0.30464604 0.45914197 0.23177826 0.27433407 0.42980343 0.25095245 0.15128067 0.2579191
0.64165014 -0.032613236 0.5680309 0.4120095 0.59562594 0.0222366 0.12825516 0.617971
0.43830064 0.70073026 0.46059814 0.207036 0.35501003 0.39198086 0.27559456 0.42245573
0.64437443 -0.026511239 0.1099026 -0.18060724 0.43324018 0.16159153 -0.07085756 0.302334
0.297084 -0.018936805 0.017766848 0.3452671 -0.058267415 0.11961391 0.13388816 0.074862726
0.087708905 -0.10385221 0.3305444 -0.14625487 -0.14492963 0.54283273 0.4736148 0.03841877
-0.06437034 0.26398417 0.0382186 0.1574755 -0.12532847 0.069788486 0.46738547 0.43208653
0.72985137 0.31838816 0.6192915 0.18903433 0.0020990192 0.16738915 -0.16971458 0.4969856
-0.104448535 0.3964499 -0.07645821 0.23079246 0.57170737 0.27233824 0.43052956 0.7431288
0.1739454 0.5178702 -0.01902401 0.6037025 0.54707086 0.73323745 0.23723675 -0.070625834
0.38445747 0.596486 0.0626214 0.35900563 0.065798804 0.01637067 0.06893061 -0.013315345
0.3324474 0.62962025 -0.14460172 0.07804895 0.80042434 0.56930757 -0.059105184 -0.061525613
0.18958062 0.021615028 0.022686211 -0.13822858 0.25268412 0.31054348 0.5184076 0.4559457
0.37934884 0.050189007 0.40780103 0.0666207 0.25855735 0.36992848 0.14640287 0.3689819
0.54082704 0.16799079 0.09705684 0.44417673 0.33180445 -0.1475921 0.40385407 0.52600384
-0.15621914 0.21571103 0.71534646 -0.018900624 0.3845989 0.43521217 0.46944746 0.31104568
0.2992532 0.10393025 0.4971206 0.18176903 0.29823402 0.008445017 0.23102431 0.47932985
0.081414305 0.5405332 0.09044444 0.14195748 0.5444219 0.523609 0.35451984 0.4417763
0.53486127 0.34758446 0.1156284 -0.056802094 0.3034066 0.5200779 0.59402645 -0.16438879
0.39867836 0.6250706 0.44994295 0.47114876 0.29864314 0.5719743 -0.21817487 -0.18548486
0.51768094 0.39801165 -0.15460792 0.53266346 0.6359421 0.17445798 0.55005246 0.4736428
0.29061893 0.5384779 0.32293606 0.44609967 0.44005823 0.18945567 0.32280394 0.41811103

fc.2.weight f4 [5, 512]
00000000: 97bd 663d 1643 1bbe 41cc d83e f56e 083f
00000010: 9d8e 01bf 5c05 4fbf 2025 7bbf c2ec 53bf
00000020: cfc0 72bf 9baf 88bf e514 033f f60d 92bd
00000030: 36ef 93bf d13c 9ebf 74c7 b2be 0521 41bd
00000040: 577f 073f 3962 7dbf 5a42 4abf 862e ba3e
00000050: e731 fb3e 0cc6 b43e 188d e8be 66ca 123f
00000060: 5383 1c3f 6de0 6bbe 5f82 2cbb 8042 c0bf
00000070: 239d edbf 3ef7 0b3f cfd8 063f b232 d63e
00000080: 5bd3 003f acb9 25bf 408e ccbe 7e4f dabe
00000090: dc30 f8be 1fcd f03b c76e 873e 9a90 fdbd
000000a0: 4147 5d3f 6d61 3dbf 96a5 2fbf 5fa7 78bf
000000b0: a4e6 963d da30 3ebf 67c3 4abf aed4 7a3f
000000c0: ee92 f8bf 4fb3 89bf 1dd0 113f 5d44 9cbf
000000d0: 31fe 08bf 2b27 6bbf f48e 3ebf 008d 573a
000000e0: f568 a23e b1a1 19c0 817b 5ebf 5b10 553c
000000f0: 134f a7be 8360 e7bf 5676 9ebf 4e21 c63e
00000100: bc9e 93bf feca 8dbf bd12 01bf 9f84 10bf
00000110: 14f0 f1bf 2936 86bf 392a 0abf 8cb1 743f
00000120: 489f 0fbe ec89 09bf efb6 30be 6468 31bf
00000130: 278c 0cbf 3452 cf3e ef5a b83e 37f8 7cbe
00000140: d6c6 e23f 0db2 cebe 4970 3fbf a761 72bf
00000150: 54fd 2bbe a20f 163f ca38 c13e aaad 413e
00000160: 2719 96bf aaf4 093d d719 16bf 75a0 483e
00000170: 32b5 c63e 2180 7a3e f934 f9be 5fe3 2c3f
00000180: 3031 93bf f173 b3bf b525 443e 695a d83e
00000190: ebdb b73e 2c29 c03e ecd3 d6bf 0651 9c3e
000001a0: b79f dd3e ccce 24bd 4ea3 83bf a642 debe
000001b0: 8842 e7be dc96 f9bc 414e d9bf 2ba5 30bf
000001c0: 3b89 67bf d54c f2bc a369 2c3f 441a 59bf
000001d0: ec43 35be 1ee4 e93e 5c58 1bbf b77f 0d3f
000001e0: 1c87 dfbf 6f77 dc3c 5688 b2be a4e1 bfbd
000001f0: 8258 e2bf 75f3 cc3e a901 babe 8633 78be
00000200: 2414 efbc c647 6abe 9a9f 253f cecc 96bf
00000210: 12c6 7fbf 9f4a 2fbf a78c f2be 6b14 1cbf
00000220: 0fc4 c13e e589 583f 920d fe3e 54e5 09bf
00000230: 0b36 df3e bb43 19bf 1585 82bf 7ad9 393f
00000240: 8552 773e 7fa0 9fbf 73b7 efbf cda3 07bf
00000250: b006 64bf 2e67 e03e d332 52bf d187 cb3e
00000260: 6aa1 0abf 6284 6abf 8e22 b8bf a4f0 d2bf
00000270: d882 25bf cbf8 b83e 562b 033f ec28 963e
00000280: 5de8 ce3e 3ed5 803f c556 363f eba7 dcbe
00000290: 45f3 f5be b4cd 30be cfe3 0d3d fb25 ea3e
000002a0: 2388 223f 2f94 e53e 07b3 13bf 20b7 ae3e
000002b0: 78a5 3c3f 9784 8dbf 363f 8fbd 22cd 6dbf
000002c0: e287 acbf 79da 6fbf 5cb7 b6bf b223 dc3e
000002d0: 8b6b 083f 8578 1dbf b185 9ebf 5d9a 4dbf
000002e0: 540f 053f 23d5 e03e 238b ab3e dd7c 3ebf
000002f0: d9a1 71bf 220d c0bf bbfc cbbe fee6 71bf
00000300: b704 45bf 815f 42bf 6a97 bebf 9f8d 1e3f
00000310: b229 003f a536 c3be e652 80bf cc5e 0bbf
00000320: 1050 de3c 8a86 76be 3871 5fbf dc7a 90bf
00000330: 3d9c c8bf 0de5 20bf c599 98bf 5ce0 91be
00000340: 01d4 19bf 3882 3b3c 7390 ab3e 05c1 0f3f
00000350: 414c a0bf 8e68 8fbf ef1b c13e 5aad 34bf
00000360: 5120 e0bf 49fe 103e ace7 213d 8a07 0ebf
00000370: 0b22 8ebf 1d27 8dbf 928b adbf 1837 8e3e
00000380: a548 56bf 82bf 1abf 5bda 2ebd db38 5fbf
00000390: da0d cabf 1736 b33e b2c2 a0bf 4cc0 173d
000003a0: 8cfc dc3e 6cc6 953e 5d97 c03e f170 283f
000003b0: 0e68 85bf 8814 ec3e 86b8 efbf 7392 80be
000003c0: 4493 78bf 7868 003f 6083 7ebc 918c 94bf
000003d0: fdf1 60bf cd35 63bf 2706 8f3e 2252 d1be
000003e0: e05c dfbe 622e 44bf bca2 083f e616 7d3e
000003f0: 2ebc 61bf dcdb f6be 88fe 59bf 68cb f73e
0.05633315 -0.1516231 0.42343333 0.53294307 -0.50608236 -0.8086755 -0.98103523 -0.8278314
-0.9482545 -1.067859 0.5120376 -0.07131569 -1.1557376 -1.236231 -0.34917796 -0.04715063
0.5292868 -0.98978 -0.79007494 0.3636362 0.4906151 0.35307348 -0.45420146 0.57340086
0.61137885 -0.2303483 -0.0026322824 -1.5020294 -1.8563579 0.54674137 0.52674574 0.41835552
0.503225 -0.6473644 -0.39952278 -0.42638773 -0.48474777 0.007348671 0.26451704 -0.12381096
0.8643685 -0.73976785 -0.6861204 -0.9713039 0.0736821 -0.7429329 -0.7920441 0.97980773
-1.9419839 -1.0757846 0.5695818 -1.2208363 -0.53512865 -0.9185664 -0.7443688 0.000822261
0.317207 -2.4004939 -0.869072 0.013004388 -0.32677516 -1.8076328 -1.2379863 0.38697284
-1.1532817 -1.1077573 -0.5041922 -0.56452364 -1.8901391 -1.0485278 -0.53970677 0.95583415
-0.14025605 -0.5372608 -0.17257284 -0.6929991 -0.54901356 0.40492404 0.36006877 -0.24704061
1.771693 -0.40370217 -0.7478071 -0.94680256 -0.16795856 0.58617604 0.3773864 0.18913904
-1.1726426 0.033680595 -0.5863318 0.1959246 0.38810116 0.2446294 -0.48673227 0.6753444
-1.1499386 -1.4019758 0.19155009 0.42256477 0.35909972 0.37531412 -1.6783423 0.30530566
0.43285915 -0.04023628 -1.0284212 -0.43410224 -0.45167947 -0.030467443 -1.6977006 -0.69002026
-0.9044377 -0.029577652 0.6734869 -0.84805703 -0.17701691 0.45681852 -0.606817 0.55273
-1.7463107 0.02691242 -0.3486964 -0.093692094 -1.768326 0.40029493 -0.36329392 -0.24238405
-0.029184408 -0.22878942 0.6469666 -1.1781251 -0.99911606 -0.6847324 -0.47372934 -0.60968655
0.37844893 0.8458541 0.49619728 -0.5386555 0.4359592 -0.59868973 -1.0196863 0.7259747
0.24152572 -1.2470855 -1.8727859 -0.52984315 -0.89072704 0.4382872 -0.821088 0.39752057
-0.5415255 -0.9160825 -1.4385545 -1.6479688 -0.64652777 0.36127314 0.51238 0.29328096
0.40411654 1.0065076 0.7122615 -0.4309686 -0.48037162 -0.1726597 0.034641083 0.45732102
0.6348898 0.44839618 -0.5769505 0.34124088 0.73689985 -1.1056088 -0.069944784 -0.9289113
-1.3478968 -0.9369274 -1.4274707 0.42995983 0.532891 -0.61512023 -1.2384549 -0.80313665
0.51976514 0.4391261 0.3350459 -0.74409276 -0.94387585 -1.5004008 -0.39841256 -0.9449309
-0.7696032 -0.7592698 -1.4889958 0.61934847 0.5006362 -0.38127628 -1.0025299 -0.54441524
0.027137786 -0.2407476 -0.87282133 -1.1287494 -1.567268 -0.62849504 -1.1921927 -0.28491485
-0.6008912 0.011444621 0.33508644 0.561539 -1.2523271 -1.1203783 0.37716624 -0.70577013
-1.7509862 0.14159502 0.03952758 -0.55480254 -1.1104139 -1.1027561 -1.3558218 0.27776408
-0.83704597 -0.6044847 -0.04268871 -0.8719613 -1.5785477 0.35002205 -1.2559416 0.037048623
0.43161428 0.29252946 0.3761548 0.65797335 -1.042238 0.46109414 -1.8728187 -0.25111732
-0.9709971 0.50159407 -0.015534252 -1.1605397 -0.87869245 -0.8875397 0.2793438 -0.40882975
-0.43625546 -0.76633275 0.5337331 0.24715766 -0.88177764 -0.48214614 -0.8515401 0.48397374

fc.2.bias f4 [5]
00000000: 9bcb f43d 1c69 203e f0eb 3e3e 14ba 923e
00000010: 2f7d 7f3e
0.11952897 0.15665096 0.1864469 0.2865759 0.24950098
