turtlebot3_dqn/save_model/stage_2_final.pth (torch, 71421 bytes, 4 tensors)

fc.0.weight f4 [512, 28]
0	0xbdc6366f	-0.09678351
1	0x3d78a190	0.060700953
2	0xbcfef2dc	-0.031121664
3	0xbe04703a	-0.12933436
4	0xbdf9234d	-0.12164936
5	0x3d8a1032	0.0674137
6	0xbd012ce7	-0.031536963
7	0xbd937a60	-0.072010756
8	0xbda064ff	-0.078317635
9	0x3d54b099	0.05192623
10	0xbd9c5bd5	-0.07634703
11	0xbc292723	-0.010324272
12	0xbd2b827a	-0.04187248
13	0xbe4d0fa5	-0.20025499
14	0x3dc6ffab	0.097167335
15	0xbe726618	-0.23671758
16	0x3dc70fd6	0.09719817
17	0xbe77cb8e	-0.24198744
18	0xbbfbc7a9	-0.0076837135
19	0xbe81b6bf	-0.25334737
20	0xbe85421e	-0.26027006
21	0x3e0eb1c0	0.13934994
22	0xbe6a2837	-0.22866903
23	0xbe598b10	-0.21244454
24	0xbd6da48a	-0.058018245
25	0xbcf97df4	-0.030455567
26	0x3dac9a44	0.08427861
27	0xbd21cbd8	-0.03950104
28	0xbdff525d	-0.124668814
29	0x3dc0c023	0.09411647
30	0x3ed74143	0.42041978
31	0x3e897583	0.26847467
32	0x3ed1808f	0.40918395
33	0x3f03bdf0	0.51461697
34	0x3ea02b75	0.31283155
35	0x3eb4dccc	0.35324705
36	0x3e2d9875	0.16952689
37	0x3ed31c49	0.41232517
38	0x3e9df176	0.30848283
39	0x3f017cab	0.50580853
40	0x3eb78aef	0.35848185
41	0x3df0411a	0.11731167
42	0x3ec94a49	0.39314488
43	0x3f2b9f7d	0.67040235
44	0x3f03b8ea	0.5145403
45	0x3e587b4d	0.21140786
46	0x3e9c4d1f	0.3052759
47	0xbe352cc6	-0.17692861
48	0x3ec13f75	0.37743726
49	0x3d4b37a8	0.049613625
50	0x3e4d820f	0.20069145
51	0x3e01ffa1	0.12695171
52	0x3e8111f8	0.25209022
53	0x3f1d32e4	0.6140578
54	0x40368a16	2.852178
55	0x3cd0efd5	0.025504986
56	0xbdd01336	-0.10159914
57	0x3e17701f	0.14788865
58	0x3eea8aa3	0.45808896
59	0x3f12cdd5	0.57345325
60	0x3ec6d6d9	0.3883579
61	0x3e2b72b7	0.16742979
62	0x3e09b6ae	0.13448593
63	0xbd92d95e	-0.07170366
64	0x3eb65e22	0.35618693
65	0x3ed65b68	0.41866612
66	0x3e5ec96e	0.21756527
67	0x3edc27ae	0.42999023
68	0x3ef6414e	0.480967
69	0x3ebe7011	0.37194875
70	0x3e2541f0	0.16138434
71	0x3e8f2186	0.27955264
72	0x3ebd4b97	0.36971733
73	0x3e847cd1	0.25876477
74	0x3ed7f985	0.42182556
75	0x3ebe22cf	0.37135932
76	0x3e7988d8	0.24368608
77	0x3ed8b576	0.42325944
78	0x3dfaa4b7	0.12238448
79	0x3e822edc	0.25426376
80	0x3e767d68	0.24071276
81	0x3e4503bb	0.19239704
82	0x404ffcc4	3.2498026
83	0x3e931905	0.28730026
84	0xbe9bbbdb	-0.3041676
85	0xbe3fc28a	-0.18726555
86	0xbd6bd946	-0.057580255
87	0x3ee90694	0.4551283
88	0x3ea52d07	0.32260916
89	0x3e9c5d42	0.305399
90	0x3e293fdb	0.16528265
91	0x3e3f0b80	0.1865673
92	0x3e0b3c29	0.13597168
93	0x3d8b9aea	0.06816657
94	0x3e6fbae9	0.23411144
95	0x3d863cf8	0.065545976
96	0x3dbb67d1	0.09150661
97	0x3d0b1089	0.033951316
98	0xbd76d9e1	-0.06026638
99	0x3e35ae3c	0.17742246
100	0xbe4b742f	-0.1986854
101	0x3ead9f06	0.33910388
102	0x3e11e5c5	0.14247806
103	0x3df38ca4	0.118920594
104	0x3e158772	0.1460245
105	0x3dc9c809	0.09852607
106	0xbd9ea6eb	-0.07746681
107	0xbdf61c3b	-0.12017103
108	0xbfddf560	-1.7340508
109	0x3e349b41	0.1763735
110	0xbff6bc0b	-1.9276136
111	0x3d00f074	0.031479314
112	0x3e4a40e1	0.19751312
113	0x3dca9247	0.098911814
114	0xbe24564b	-0.16048543
115	0x3eba0346	0.36330622
116	0x3e93a65e	0.28837866
117	0x3eb5cecf	0.35509345
118	0xbdda2ea6	-0.10653429
119	0x3e8fcf04	0.28087628
120	0x3ebb9490	0.36636782
121	0x3e65945c	0.22419876
122	0x3f118203	0.5683901
123	0x3e3ea4b8	0.18617523
124	0x3dcfe840	0.1015172
125	0x3e96f860	0.2948637
126	0x3f2fa224	0.6860678
127	0x3eba5991	0.3639646
128	0x3d86678f	0.06562721
129	0x3e496078	0.19665706
130	0x3e21edb1	0.15813328
131	0x3e911d2a	0.28342563
132	0x3ecc9809	0.39959744
133	0x3e251019	0.16119422
134	0x3dc076ca	0.09397657
135	0xbd8c1a44	-0.06840947
136	0x3e1d4983	0.15360074
137	0x3e7d2109	0.24719633
138	0x402f3b7c	2.7380056
139	0x3e8b8d03	0.2725602
140	0x3e50432a	0.20338121
141	0xbe320861	-0.17386009
142	0x3eb94281	0.3618355
143	0x3e32e9bf	0.1747198
144	0x3e230d94	0.15923148
145	0x3dc0c548	0.094126284
146	0x3ebbe4b5	0.36697927
147	0xbdb5e372	-0.088812724
148	0xbe70d228	-0.23517668
149	0x3db65738	0.089033544
150	0x3bc4ed58	0.006009739
151	0x3e56ae97	0.20965038
152	0x3e173814	0.14767486
153	0x3e5c8dae	0.21538422
154	0x3e7a5ae8	0.2444874
155	0x3eb88f35	0.36046758
156	0x3dea7a38	0.114490926
157	0x3ea36216	0.3191077
158	0x3efc6ebc	0.49303234
159	0x3e8ea5ab	0.2786077
160	0xbcf28fc6	-0.029609572
161	0xbd82f502	-0.06394388
162	0xbea84229	-0.32862976
163	0xbea2e460	-0.3181486
164	0x3ffc1123	1.969273
165	0x3efcb421	0.49356177
166	0xc021ec7e	-2.5300593
167	0x3caf0f6d	0.02136966
168	0x3e09d620	0.13460588
169	0xbe506828	-0.20352232
170	0xbe13751f	-0.14400147
171	0x3e5e0903	0.21683125
172	0xbe983fbe	-0.2973613
173	0xbe19dff6	-0.1502684
174	0x3dd44ec6	0.10366587
175	0x3ccf3133	0.025292015
176	0x3e7f8fb4	0.24957162
177	0x3de57976	0.112048075
178	0x3ebcfc83	0.369114
179	0x3df47a55	0.119373955
180	0x3e60491b	0.21902888
181	0x3ef3c253	0.47609195
182	0x3efca2e8	0.49343038
183	0x3d63609f	0.055512067
184	0x3da7d8c9	0.08195645
185	0x3e93b5a3	0.28849515
186	0x3e6b05c9	0.22951426
187	0x3e2d48e0	0.16922331
188	0x3ee44b60	0.44588757
189	0x3d918324	0.07105091
190	0x3dac5b84	0.08415893
191	0x3e34c957	0.1765493
192	0xbe6bca67	-0.23026429
193	0x3e5e4d3b	0.21709149
194	0x3ffb3c99	1.9627868
195	0x3e8ba6fa	0.2727583
196	0x3ecb5082	0.3970986
197	0x3eeb6b2b	0.459802
198	0x3ea253f7	0.31704685
199	0x3e8a2ede	0.26988882
200	0x3e043c4e	0.1291363
201	0x3eae0fea	0.33996516
202	0x3ee69f05	0.45043197
203	0x3d9ef1c3	0.07760956
204	0x3eeb1f29	0.4592221
205	0x3e84f314	0.25966704
206	0x3f21871d	0.6309679
207	0x3f056e6d	0.5212162
208	0x3ed6a113	0.41919765
209	0x3ea77029	0.3270276
210	0x3e9ea0d2	0.3098207
211	0x3e6fbc7e	0.23411748
212	0x3e3f6859	0.18692149
213	0x3e76b5ae	0.24092743
214	0x3dd4a4e6	0.103830144
215	0x3eefd146	0.4683935
216	0x3ee88ae1	0.45418456
217	0x3eff27ef	0.49835154
218	0x3ef0bf7e	0.47021097
219	0x3e56f5d2	0.2099221
220	0xbc06b5cb	-0.008222054
221	0x3e4c2240	0.1993494
222	0x404ae09d	3.1699593
223	0x3e2bb548	0.16768372
224	0x3ef0c6ba	0.47026616
225	0x3ec560c1	0.3855038
226	0x3e662685	0.22475632
227	0x3f0446f8	0.5167079
228	0x3f1f4333	0.6221191
229	0x3e772746	0.24136075
230	0x3dfca848	0.123367846
231	0x3eaa9b50	0.3332162
232	0x3f17a1a8	0.5923104
233	0x3edf5a6b	0.4362367
234	0x3f1d2850	0.61389637
235	0x3ebe8d73	0.37217292
236	0x3ea3d4a7	0.31998178
237	0x3eea4fb9	0.4576395
238	0x3e735eeb	0.23766677
239	0x3e9d88a1	0.30768302
240	0x3e83eae4	0.25765145
241	0x3e4d30df	0.20038174
242	0x3ebc2214	0.3674475
243	0x3e59e23f	0.21277712
244	0x3eace0a1	0.33765128
245	0x3e1076ed	0.14107867
246	0x3f03921e	0.5139483
247	0x3ee7d389	0.45278576
248	0x3d1b28ae	0.037880592
249	0x3e7ccf21	0.24688388
250	0x40372d83	2.8621528
251	0x3df67288	0.12033564
252	0xbe793431	-0.24336316
253	0xbef32a91	-0.47493413
254	0xbf013192	-0.50466263
255	0x3f388d29	0.72090393

fc.0.bias f4 [512]
0	0x3ca388db	0.019962719
1	0x4005bd86	2.0896926
2	0x3fe61c9f	1.7977484
3	0xbfaa951e	-1.3326757
4	0x3ff308ac	1.8987021
5	0xbfa1e29d	-1.2647282
6	0x3fd87e4b	1.6913542
7	0x4007f9bf	2.1246183
8	0x4004e5cc	2.0765257
9	0xbfe92e86	-1.8217323
10	0x3dcbe833	0.09956398
11	0xbe6da346	-0.23206815
12	0xbf5567cc	-0.83361506
13	0xbf1095ff	-0.56478876
14	0x3e32f113	0.17474775
15	0xbf608e0b	-0.8771674
16	0x3eb5c6d5	0.3550326
17	0xbfad6eb7	-1.3549412
18	0xbfd27263	-1.6441158
19	0xbf4466dd	-0.76719457
20	0x3eae8eb5	0.34093252
21	0x40092fbf	2.1435392
22	0xbf95a7b2	-1.1691802
23	0xbf9e7c3c	-1.2381663
24	0xbfb3ecab	-1.40566
25	0xbba18dd6	-0.0049302382
26	0xbf9d4881	-1.2287751
27	0x3fe1b0bc	1.763206
28	0x3fae235e	1.3604543
29	0x3e5b2d88	0.21404088
30	0xbf5bbaa3	-0.8583166
31	0x3ff42fcd	1.9077088
32	0x40007111	2.006901
33	0x400b0084	2.1719065
34	0xbe3502bc	-0.17676824
35	0xbea93a09	-0.3305209
36	0xbec78d66	-0.38975066
37	0xbf2a4147	-0.66505855
38	0xbfc32332	-1.5245116
39	0x3db856d4	0.09000936
40	0x3e9926aa	0.2991231
41	0x40064696	2.0980582
42	0xbfcfe3b7	-1.6241368
43	0xbfca622c	-1.581121
44	0x3d311195	0.04322966
45	0xbfcb190f	-1.5867022
46	0xbfabc43e	-1.3419263
47	0xbd5ed72b	-0.05440442
48	0x3ffb3ec8	1.9628534
49	0xbf734ca2	-0.9503881
50	0xbc976a62	-0.018483344
51	0xbf1202d9	-0.57035595
52	0xbf94aaf2	-1.1614668
53	0xbde6de69	-0.1127289
54	0x3decc044	0.11560109
55	0x3fe3e3b1	1.7803861
56	0x3e9e158f	0.30875823
57	0xbf84f001	-1.0385743
58	0xbfae8b3f	-1.3636245
59	0x3fde4634	1.7365174
60	0x3fdce52e	1.725744
61	0x400183fe	2.0236812
62	0x3dfb8058	0.12280339
63	0x40033c5d	2.0505593
64	0xbfc6c7a1	-1.5529672
65	0xbf4b4400	-0.79400635
66	0x3ff1cea7	1.889119
67	0x3ffd33f0	1.9781475
68	0x4008e5e4	2.1390314
69	0xbf589303	-0.8459932
70	0xbfc2099d	-1.5159184
71	0x4007d3ae	2.122295
72	0xbf967f61	-1.1757623
73	0x3e93c75a	0.2886303
74	0xbf9aa95f	-1.2082938
75	0x3f02ec64	0.51141953
76	0xbe6f35eb	-0.23360412
77	0xbfa2dc99	-1.2723571
78	0x3fec8458	1.8477888
79	0x3e3fc731	0.18728329
80	0x3ff0cb10	1.881197
81	0xbd0e0cc7	-0.034680154
82	0xbd1cb737	-0.038260665
83	0xbfadb954	-1.3572183
84	0x3e79d57c	0.24397844
85	0xbeeb81de	-0.45997518
86	0x3cfdd08b	0.03098323
87	0xbeb550b7	-0.35413143
88	0xbf6f1121	-0.9338551
89	0xbf49c7a9	-0.7882028
90	0x3fc414d8	1.5318861
91	0xbf14823d	-0.5801123
92	0x4006d495	2.106725
93	0xbfd53af5	-1.6658617
94	0xbe21ad11	-0.15788676
95	0x3f82efba	1.0229409
96	0x3ffbf0c7	1.9682854
97	0x4003cd26	2.0593963
98	0xbfa4d1fa	-1.287658
99	0xbfb3649d	-1.401508
100	0x3f9f8e24	1.2465253
101	0xbf9954fd	-1.1979061
102	0xbfbf9ffd	-1.49707
103	0xbf17bb5c	-0.5927026
104	0x3de65af5	0.112478174
105	0x40082dd5	2.1277974
106	0xbf09f6e1	-0.5389233
107	0xbf95ea49	-1.1712123
108	0xbf681923	-0.90663356
109	0xbf373ac2	-0.7157403
110	0x3d5f49e2	0.05451382
111	0xbf9b3a2e	-1.212713
112	0xbe65c5d7	-0.22438751
113	0xbfc05b85	-1.502793
114	0xbf7f0611	-0.9961863
115	0xbfb05099	-1.3774596
116	0xbf35b235	-0.7097505
117	0xbfaa03bf	-1.3282393
118	0xbfab944f	-1.3404635
119	0x3e20d63d	0.15706725
120	0xbfb6f5de	-1.4293783
121	0x40005254	2.005025
122	0xbebaf752	-0.36516815
123	0xbfd13f0c	-1.6347365
124	0xbf36aa4b	-0.71353596
125	0xbfb50dda	-1.4144852
126	0xbfc97a8d	-1.5740525
127	0xbeeb7762	-0.4598952
128	0x3ff77818	1.9333525
129	0x3da2e4bf	0.07953786
130	0x3fd32013	1.6494163
131	0xbf4b20f3	-0.7934715
132	0x3e40f394	0.18842918
133	0xbfaa68b7	-1.3313206
134	0x3ff9a9bd	1.9504925
135	0xbfb0e429	-1.3819629
136	0x4006d938	2.107008
137	0xbfb7c93c	-1.4358287
138	0x3ffc67c7	1.971917
139	0x3fff0d30	1.99259
140	0x400768cd	2.1157715
141	0xbe778574	-0.24172002
142	0xbf9c7b79	-1.2225181
143	0xbf931a91	-1.1492482
144	0xbfe737e9	-1.8063937
145	0xbfae1a72	-1.360182
146	0x3ffa83fb	1.9571527
147	0xbf800f94	-1.0004754
148	0x4001cec8	2.028246
149	0x3efcd6f0	0.49382734
150	0xbe970c92	-0.29501778
151	0x400833b2	2.1281552
152	0xbf0d5d92	-0.552209
153	0xbf71d946	-0.9447216
154	0xbf9a4415	-1.2052027
155	0xbfb98978	-1.4495077
156	0xbe7a4638	-0.24440849
157	0xbfce6a47	-1.6126183
158	0xbf58e368	-0.84721994
159	0xbf61efe1	-0.8825665
160	0xbe61d166	-0.22052535
161	0x4000fdd1	2.0154917
162	0xbf916b5e	-1.1360891
163	0xbe15cc24	-0.14628655
164	0xbefbab95	-0.49154344
165	0xbf99d2d1	-1.2017461
166	0x3e942587	0.2893488
167	0x3fd29e16	1.6454494
168	0xbec3edb0	-0.3826728
169	0xbef0eeaa	-0.47057086
170	0x3ff25ee8	1.8935213
171	0x3ea32030	0.31860495
172	0x3ffba861	1.966076
173	0xbf6055f7	-0.8763117
174	0xbf830aa4	-1.0237622
175	0x3ff469f8	1.9094839
176	0x40065808	2.099123
177	0x3fee3c0f	1.8612078
178	0x3e3f8cfa	0.18706122
179	0x400df1b0	2.2178764
180	0x3fe15363	1.7603573
181	0x3fe604bf	1.7970198
182	0xbe9c9359	-0.30581167
183	0x3dfa4b47	0.12221389
184	0xbee4c9aa	-0.44685107
185	0x3fd6fdad	1.6796166
186	0x3e897c8a	0.26852828
187	0x40086ba4	2.1315699
188	0x3b8d4428	0.0043111034
189	0x3c75d324	0.015003953
190	0xbfc5731f	-1.5425757
191	0xbcbb28e0	-0.02284664
192	0x3ce5b177	0.028038723
193	0xbfa7f901	-1.3122865
194	0x400e25a5	2.2210476
195	0x40014425	2.0197842
196	0xbf69a787	-0.9127125
197	0xbfa8790b	-1.3161939
198	0x3fe17c4d	1.7616059
199	0x3ddff1c5	0.10934786
200	0x3f7c7f8f	0.9863214
201	0xbd86c0af	-0.0657972
202	0xbc97be14	-0.018523254
203	0x3ff38036	1.9023502
204	0x3dc23d4e	0.09484349
205	0xbfa79af6	-1.3094165
206	0xbfc10143	-1.507851
207	0x3fdb64e9	1.714017
208	0xbf4d2650	-0.80136585
209	0x3d14ea75	0.03635641
210	0x3ef1b027	0.47204706
211	0xbfb04f48	-1.3774195
212	0x3e81bc4f	0.2533898
213	0x3fe1e0a0	1.7646675
214	0xbfbb0799	-1.4611694
215	0xbe74f4ab	-0.23921458
216	0x3ffaa159	1.9580489
217	0x3eb48345	0.352564
218	0xbfb1c936	-1.388953
219	0xbf4de71b	-0.80430764
220	0x4004bbe2	2.0739675
221	0xbf87eb76	-1.0618732
222	0xbf98e878	-1.1945944
223	0x3feb8b81	1.8401948
224	0xbf9d8354	-1.2305703
225	0xbfa2b1b9	-1.2710487
226	0x3ff3ecc7	1.9056634
227	0xbf901bf5	-1.1258532
228	0x3fdeb864	1.7400022
229	0xbe32d411	-0.1746371
230	0x3ff692a4	1.9263501
231	0x3d591706	0.053000472
232	0xbea0df95	-0.3142058
233	0xbde141df	-0.10998892
234	0xbe9de127	-0.3083584
235	0x3dbeb18c	0.09311208
236	0x3fe6de27	1.8036546
237	0xbbdf1ca1	-0.0068088328
238	0x3febc341	1.8418962
239	0xbfb03fa2	-1.3769419
240	0xbfc041c6	-1.5020072
241	0xbf9568c9	-1.1672603
242	0x3e050ee2	0.12993959
243	0xbf17eb55	-0.59343463
244	0xbf7b5502	-0.98176587
245	0xbfa64be7	-1.2991914
246	0x3e76a667	0.24086915
247	0x3e3ab359	0.18232478
248	0x3d07185f	0.032982226
249	0xbf9ad74d	-1.2096955
250	0xbe23255d	-0.15932222
251	0xbfc1dcea	-1.5145543
252	0xbf720a7e	-0.9454726
253	0xbec6bcfa	-0.38816053
254	0xbd391965	-0.045190234
255	0xbf47516d	-0.7785862

fc.2.weight f4 [5, 512]
0	0x3d1b2527	0.037877228
1	0x3eccd4b9	0.40006045
2	0x3ebc1381	0.3673363
3	0xbf5ebac0	-0.8700371
4	0x3e9443eb	0.28958067
5	0xbec076ce	-0.3759064
6	0x3e1f5fb7	0.15563856
7	0x3ebb6657	0.36601517
8	0x3ec89708	0.39177728
9	0xbf23faa6	-0.64054334
10	0xbf8771bd	-1.0581585
11	0xbfaff9c8	-1.3748102
12	0xbf1ab252	-0.60428345
13	0xbf949177	-1.1606892
14	0x3d287922	0.041131146
15	0xbeb6a11d	-0.35669795
16	0xbfdf36a7	-1.7438554
17	0xbf56ef7f	-0.8395919
18	0xbf48360b	-0.78207463
19	0xbf2c149f	-0.67218965
20	0xbfbdbcfc	-1.4823298
21	0x3e7e2d57	0.24821983
22	0xbf731b82	-0.9496385
23	0xbf93f049	-1.1557704
24	0xbfb0fa1d	-1.3826329
25	0xbfbc66dd	-1.4718891
26	0xbf830ad6	-1.0237682
27	0x3e91b203	0.28456125
28	0x3f94cba4	1.1624646
29	0xbfd0e83c	-1.6320872
30	0xbf40ece1	-0.7536145
31	0x3eb0ae7b	0.34508118
32	0x3ee6df4d	0.4509224
33	0x3ee8c2fe	0.45461267
34	0xbc41da40	-0.01183182
35	0xbf36ebec	-0.7145374
36	0xbfd16b3c	-1.636085
37	0xbf4e4c9e	-0.8058566
38	0xbee1f123	-0.44129285
39	0xbfafcff5	-1.3735338
40	0xbf8abcc2	-1.0838854
41	0x3ec2d5da	0.3805378
42	0xbf0ccb3b	-0.54997605
43	0xbf656faf	-0.8962354
44	0xbfaf8ee3	-1.371548
45	0xbeb2bcbf	-0.34909627
46	0xbf773b58	-0.96574926
47	0x3c323008	0.010875709
48	0x3eeb1cdb	0.45920452
49	0xbf9031ae	-1.1265161
50	0xbfd06753	-1.6281532
51	0xbfe2ca1d	-1.771793
52	0xbf391322	-0.7229482
53	0xbd70ac81	-0.058758263
54	0xbfe05af9	-1.7527763
55	0x3eb66103	0.3562089
56	0xbfa0e157	-1.2568768
57	0xbf937a17	-1.1521634
58	0xbf88d42d	-1.0689751
59	0x3ea0f3ad	0.3143591
60	0x3e0f6622	0.14003804
61	0x3ea71d52	0.32639557
62	0xc028c66f	-2.6371114
63	0x3e9b79ca	0.30366355
64	0xbfcfc607	-1.6232308
65	0xbf832f61	-1.0248834
66	0x3eae03a9	0.33987167
67	0x3ea7abbe	0.32748216
68	0x3edd2c0e	0.43197674
69	0xbf853e3d	-1.0409619
70	0xbea6dc9f	-0.32590196
71	0x3ebdb7e4	0.3705436
72	0xbf4a6628	-0.7906213
73	0xbf8f8605	-1.1212775
74	0xbf7a7baf	-0.97844976
75	0xbfdc8424	-1.7227826
76	0xbf8c43ac	-1.0958152
77	0xbeeec6b4	-0.46635973
78	0x3eddd9fb	0.43330368
79	0xbf9327ce	-1.1496522
80	0x3ee2bc75	0.44284406
81	0xbc353574	-0.0110601075
82	0xbf46121e	-0.77371395
83	0xbf446bb7	-0.7672686
84	0xbfe264fb	-1.7687067
85	0xbf97d19b	-1.1860842
86	0xc001c326	-2.027536
87	0xc000505e	-2.0049052
88	0xbf6478f7	-0.8924708
89	0xbfa57d88	-1.2928934
90	0x3d8d5f30	0.06902921
91	0xbf8f3a17	-1.1189603
92	0x3eb56f83	0.3543664
93	0xbf26608f	-0.64991087
94	0xbfa7643c	-1.3077464
95	0xbe8eed88	-0.27915597
96	0x3e8461a9	0.2585576
97	0x3ea963d7	0.33083984
98	0xbf01e1d4	-0.5073521
99	0xbed453ae	-0.41470093
100	0x3f5fdae4	0.87443376
101	0xbf46f7b6	-0.77721727
102	0xbe8fb98a	-0.28071243
103	0xbf82613f	-1.0185927
104	0xbf9b6dc2	-1.214287
105	0x3ef1c0c7	0.4721739
106	0xbfbbd333	-1.4673828
107	0xbf7782bc	-0.9668386
108	0xbf6bd677	-0.9212412
109	0xbf29768b	-0.6619651
110	0xbfafafe8	-1.3725557
111	0xbe306553	-0.17226152
112	0xbfbdc155	-1.4824625
113	0xbe978ffb	-0.29602036
114	0xbf4d5c30	-0.8021879
115	0xbf70a520	-0.9400196
116	0xbf857a53	-1.0427955
117	0xbf1489c5	-0.5802272
118	0xbf1c4972	-0.6104957
119	0xbf3738fb	-0.7157132
120	0xbf386fc1	-0.7204552
121	0x3e733f0e	0.23754522
122	0xbf82f674	-1.0231462
123	0xbef8217e	-0.48463053
124	0xbf3c6ac1	-0.73600394
125	0xbf2b3b0e	-0.66886985
126	0xbddb0709	-0.10694701
127	0xbfa4ba2a	-1.2869313
128	0x3ea1d301	0.31606296
129	0xbf5e5e17	-0.8686232
130	0x3ea0387b	0.3129309
131	0xbf6a3193	-0.91481894
132	0xbf989483	-1.1920322
133	0xbfab3c91	-1.3377858
134	0x3e925bb1	0.2858558
135	0xbf5bada0	-0.85811806
136	0x3e9b6f48	0.30358338
137	0xbf3e30d7	-0.74293274
138	0x3ebb7913	0.3661581
139	0x3e94366a	0.28947765
140	0x3ed52d63	0.4163619
141	0xbfb06bdc	-1.3782916
142	0xbf5a3bfb	-0.8524777
143	0xbf9805eb	-1.1876806
144	0xbf023695	-0.50864536
145	0xbebbe0ad	-0.36694852
146	0x3ef7862b	0.4834455
147	0xbfa47d65	-1.2850767
148	0x3ebd8e4c	0.37022626
149	0x3fe2036d	1.7657295
150	0xbf79f4b2	-0.97639
151	0x3ec30502	0.38089758
152	0xbfa7b21e	-1.3101232
153	0xbf6d4b41	-0.92692953
154	0xbf7a7929	-0.97841126
155	0xbf57eb7a	-0.84343684
156	0xbfddb358	-1.7320356
157	0xbeaa3263	-0.33241567
158	0xbf73fa18	-0.9530349
159	0xbf3a864d	-0.72861177
160	0xbf87ee20	-1.0619545
161	0x3eb76f7f	0.35827252
162	0xbf69c2e2	-0.9131299
163	0xbf92713a	-1.1440804
164	0xbef073eb	-0.46963438
165	0xbf47c4d0	-0.7803469
166	0xbfc5962a	-1.5436451
167	0x3f867259	1.0503646
168	0xbf69c4a5	-0.9131568
169	0xbf7304bb	-0.94929093
170	0x3ef6fdd3	0.48240528
171	0xbffa3a09	-1.9548961
172	0x3f172739	0.59044224
173	0xbf5abd3a	-0.85444987
174	0xbf616cd0	-0.8805666
175	0x3f90f9cf	1.1326236
176	0x3eddb0d9	0.43298987
177	0x3ed36cc8	0.4129393
178	0xbfd91f41	-1.6962663
179	0x3ecb2cf5	0.39682737
180	0x3e922c5c	0.2854947
181	0x3e972d62	0.29526812
182	0xbf8e29d1	-1.1106511
183	0xbfc6c7a8	-1.552968
184	0xbf3bb144	-0.7331736
185	0x3e83f823	0.2577525
186	0xbdf7eea1	-0.12106062
187	0x3fcff875	1.6247698
188	0xbf5b9e5c	-0.8578851
189	0xbc9ee0c8	-0.019394293
190	0xbebcab27	-0.3684933
191	0xbf92a73c	-1.1457286
192	0xbf7f56f6	-0.99742067
193	0xbf76960a	-0.9632269
194	0x3ec38589	0.38187817
195	0x3eccc288	0.39992166
196	0xbf9e4650	-1.2365208
197	0xbef01942	-0.4689427
198	0x3f2e59ef	0.6810598
199	0xbf3a3310	-0.72734165
200	0x3ea1af9a	0.31579286
201	0x3d6b40cc	0.057434842
202	0xbf85dbde	-1.0457723
203	0x3e34dd33	0.17662506
204	0xbf818aaa	-1.0120442
205	0xbf82cc23	-1.0218548
206	0xbf0b9418	-0.5452285
207	0x3ea467a5	0.32110325
208	0xbf96c90e	-1.1780107
209	0xbff9fe87	-1.95308
210	0x402cfa60	2.7027817
211	0xbf897977	-1.0740193
212	0xbf2f51c4	-0.6848414
213	0x3e99466b	0.29936537
214	0xbf89c6b3	-1.0763763
215	0xbfe237d3	-1.7673286
216	0x3e834355	0.25637308
217	0x3f0bd628	0.5462365
218	0xbf8ebcca	-1.1151364
219	0xbf8030a6	-1.0014846
220	0x3f0bd724	0.54625154
221	0xbf41f587	-0.7576527
222	0xbf0287fe	-0.5098876
223	0x3e82fd23	0.25583753
224	0xbf51f495	-0.8201383
225	0xbf3596da	-0.70933306
226	0x3ef4ccbf	0.4781246
227	0xbf9bfbcc	-1.2186217
228	0x3e13d442	0.14436439
229	0xbf8521b8	-1.0400915
230	0x3eb6cb8f	0.35702178
231	0xbfc5e3ce	-1.5460145
232	0xbf70e931	-0.9410582
233	0xbfded825	-1.7409712
234	0xbfbdbc0c	-1.4823012
235	0x3c52c3a8	0.012864031
236	0x3f009ed3	0.50242347
237	0xbfae3ffc	-1.3613276
238	0x3ecc69a9	0.39924362
239	0xbfaced04	-1.3509831
240	0xbeeccd74	-0.46250498
241	0xbf387490	-0.7205286
242	0xbf85a8b8	-1.0442114
243	0xbf9881be	-1.1914594
244	0xbf85a585	-1.0441138
245	0xbf9a99bc	-1.2078166
246	0xbfb31756	-1.3991497
247	0xbf5582bf	-0.8340263
248	0xbfac5095	-1.3462092
249	0xbf89a5e0	-1.0753746
250	0x3d56e447	0.052463796
251	0xbf82321f	-1.0171546
252	0xbfa60440	-1.2970047
253	0xbfb968db	-1.4485124
254	0xbfa58c16	-1.2933376
255	0xbfae7f7d	-1.3632656

fc.2.bias f4 [5]
0	0x3f5a454a	0.85261977
1	0x3f7d2ac8	0.98893404
2	0x3f5d7c51	0.86517817
3	0x3f6e865c	0.93173766
4	0x3f70732b	0.9392573
