turtlebot3_dqn/save_model/stage_3_final_dueling_11-30_23_25.pth (torch, 327245 bytes, 9 tensors)

fc.0.weight f4 [512, 28]
0	0xbdc6366f	-0.09678351
1	0x3d78a190	0.060700953
2	0xbcfef2dc	-0.031121664
3	0xbe04703a	-0.12933436
4	0xbdf9234d	-0.12164936
5	0x3d8a1032	0.0674137
6	0xbd012ce7	-0.031536963
7	0xbd937a60	-0.072010756
8	0xbda064ff	-0.078317635
9	0x3d54b099	0.05192623
10	0xbd9c5bd5	-0.07634703
11	0xbc292723	-0.010324272
12	0xbd2b827a	-0.04187248
13	0xbe4d0fa5	-0.20025499
14	0x3dc6ffab	0.097167335
15	0xbe726618	-0.23671758
16	0x3dc70fd6	0.09719817
17	0xbe77cb8e	-0.24198744
18	0xbbfbc7a9	-0.0076837135
19	0xbe81b6bf	-0.25334737
20	0xbe85421e	-0.26027006
21	0x3e0eb1c0	0.13934994
22	0xbe6a2837	-0.22866903
23	0xbe598b10	-0.21244454
24	0xbd6da48a	-0.058018245
25	0xbcf97df4	-0.030455567
26	0x3dac9a44	0.08427861
27	0xbd21cbd8	-0.03950104
28	0xbd395745	-0.045249242
29	0x3e43e31f	0.19129609
30	0x3e8bedba	0.27329808
31	0xbd474dc5	-0.04865815
32	0x3e4a3e0c	0.19750232
33	0x3e8c2755	0.27373758
34	0x3e613705	0.21993645
35	0x3eaa5483	0.33267602
36	0xbd471d49	-0.048611913
37	0x3d2b8676	0.04187628
38	0xbb50d7ae	-0.0031866836
39	0x3ddbd0bc	0.10733172
40	0x3c712d44	0.014720265
41	0xbe67dee8	-0.22643626
42	0xbd0e6290	-0.034761965
43	0x3ea76bbc	0.32699382
44	0x3e8a26a9	0.2698262
45	0x3da6bb9c	0.081412524
46	0x3e798211	0.24366023
47	0xbe706e32	-0.23479536
48	0xb95e05df	-0.00021173757
49	0xbd8ce8f0	-0.06880367
50	0x3e91b42a	0.28457767
51	0x3e4318d8	0.19052446
52	0x3dcc1e53	0.099667214
53	0x3cd8bfb7	0.026458604
54	0x3d1c3944	0.03814055
55	0xbe29e340	-0.16590595
56	0xbe0098e2	-0.1255832
57	0x3c7a35bf	0.015271603
58	0x3df78448	0.120857775
59	0xbc971f27	-0.018447472
60	0x3d0e0268	0.034670264
61	0xbe18682f	-0.14883493
62	0xbe1184ba	-0.14210787
63	0xbeb2902d	-0.34875622
64	0xbddbb46c	-0.10727772
65	0xbe15697d	-0.14591022
66	0xbe6f14e9	-0.2334782
67	0xbd981143	-0.074251674
68	0x3d77c54f	0.060490903
69	0x3ceacc30	0.028661817
70	0xbe1ab6cd	-0.15108795
71	0xbd5a7210	-0.053331435
72	0x3e134805	0.14382942
73	0x3cce5bb8	0.02519022
74	0x3ec645a0	0.38724995
75	0x3ee524f6	0.4475476
76	0x3decb6f7	0.11558335
77	0x3ed08101	0.40723422
78	0x3e3ecb33	0.18632202
79	0x3e568200	0.20948029
80	0x3dcde7e1	0.10053993
81	0xbe679a09	-0.22617353
82	0xbe846925	-0.2586147
83	0x3e436ce5	0.19084509
84	0xbe8afa4b	-0.27144083
85	0xbe4a9681	-0.19783975
86	0xbc52ae70	-0.012858972
87	0x3d061ef4	0.032744363
88	0xbd1e593c	-0.03865932
89	0xbe7ea718	-0.24868429
90	0xbedd95c1	-0.43278316
91	0xbf35b852	-0.70984375
92	0xbed390ec	-0.41321504
93	0xbe8c3b6c	-0.27389085
94	0xbd417535	-0.047230918
95	0xbe570fb0	-0.21002078
96	0x3d3a8ca2	0.045544274
97	0x3d3328d7	0.04374012
98	0xbd52135a	-0.051287986
99	0x3e0264a6	0.12733707
100	0x3c9ecd84	0.019385107
101	0x3e54a4d4	0.20766002
102	0x3deb456d	0.11487851
103	0x3e4ec618	0.20192754
104	0x3e5fcc57	0.21855293
105	0x3d9f7d6c	0.07787594
106	0x3c8e657d	0.017382378
107	0xbd8d03e9	-0.068855114
108	0xbf6df8d0	-0.9295778
109	0x3c460c0e	0.012087835
110	0x3eb9c21e	0.36280912
111	0x3daa418c	0.08313283
112	0x3ef7f425	0.48428455
113	0x3e99e60b	0.3005832
114	0xbd6301ba	-0.05542157
115	0x3e2385d9	0.15969028
116	0x3dd5c9af	0.10438859
117	0x3db23145	0.08700804
118	0xbe47652c	-0.19472188
119	0xbd83afd2	-0.064300194
120	0xbcb6a733	-0.022296524
121	0xbd0e7b18	-0.03478536
122	0xbd3b5fdd	-0.04574572
123	0xbe9af2e9	-0.3026345
124	0xbe4de9b5	-0.20108683
125	0xbcc8b6b0	-0.024501175
126	0x3ed73fa0	0.4204073
127	0x3e283765	0.16427381
128	0xbdf34a8c	-0.11879453
129	0x3c81471a	0.015780974
130	0x3e8f64f5	0.28006712
131	0xbe4db29d	-0.20087667
132	0x3c6a7b40	0.014311612
133	0x3c20d60a	0.009816656
134	0x3da27cf5	0.0793399
135	0x3e5118ad	0.2041957
136	0x3db6d913	0.08928122
137	0xbdf97bb9	-0.12181801
138	0xbc24604e	-0.010032726
139	0x3d68539f	0.056720372
140	0x3eb5bd5e	0.35496038
141	0xbef75034	-0.48303378
142	0x3f002b61	0.5006619
143	0x3e8588e3	0.26081
144	0xbcd6c8b9	-0.026218759
145	0x3daa591f	0.0831778
146	0xbd64bdb8	-0.055844992
147	0xbe789c9d	-0.24278493
148	0xbec9791d	-0.39350215
149	0xbddd9736	-0.10819857
150	0x3d59bc6b	0.053158205
151	0x3c071030	0.0082436055
152	0x3d8d1b3e	0.06889962
153	0x3cd629b9	0.026142942
154	0x3dcfaf4d	0.10140858
155	0x3e864047	0.26220915
156	0x3e88f31c	0.26747978
157	0x3ed0446a	0.40677196
158	0x3ead96e6	0.3390419
159	0xbe864804	-0.2622682
160	0xbeec15d3	-0.461104
161	0xbed0509a	-0.40686494
162	0x3daf99b4	0.085742384
163	0xbe2073ba	-0.15669146
164	0x3d9a9440	0.07547808
165	0x3d3b5881	0.0457387
166	0xbef50ae1	-0.47859862
167	0x3ccabb00	0.024747372
168	0x3e83eef0	0.25768232
169	0x3d24f197	0.04026946
170	0x3e17ed1b	0.14836542
171	0x3e1ea6c4	0.15493304
172	0xbeb6a6c9	-0.35674122
173	0xbe75ebba	-0.24015704
174	0xbe0670b4	-0.1312893
175	0xbe985fbc	-0.2976054
176	0x3dcea516	0.100900814
177	0xbea7a01b	-0.32739338
178	0x3e528356	0.20557913
179	0xbdebcbc4	-0.115134746
180	0xbe2b5d3a	-0.16734782
181	0x3ddb4db7	0.10708182
182	0x3e6371da	0.222114
183	0xbdc9310b	-0.09823807
184	0xbeb04ea0	-0.34434986
185	0x3d1fc44b	0.03900556
186	0xbd593af0	-0.053034723
187	0xbe0f7480	-0.14009285
188	0x3d5eb4a0	0.054371476
189	0xbd8419ef	-0.06450259
190	0x3e37a089	0.17932333
191	0x3e924597	0.28568718
192	0xbb98a29f	-0.004658058
193	0xbe791412	-0.24324062
194	0x3f236e2c	0.63839984
195	0x3da843b4	0.08216038
196	0x3ecb58b8	0.39716125
197	0x3f44fca4	0.76948
198	0x3f1e0be8	0.6173692
199	0x3bb2ccf7	0.0054565626
200	0xbe1e4f19	-0.15459861
201	0x3d895fca	0.067077234
202	0x3e202941	0.15640737
203	0x3dedf34e	0.11618672
204	0x3dfa13cf	0.122108094
205	0xbbb521bf	-0.0055277045
206	0x3cf3d4de	0.029764589
207	0x3e1b267f	0.15151404
208	0xbd163f1d	-0.036681283
209	0xbe56a47c	-0.20961183
210	0xbe4056e4	-0.18783146
211	0xbe8067b5	-0.25079122
212	0xbe1409e2	-0.14456895
213	0xbe869173	-0.26282844
214	0xbf039e7b	-0.51413697
215	0xbe4dc8b1	-0.20096089
216	0xbeb7af04	-0.35875714
217	0x3c08f29b	0.008358623
218	0x3eda1d5c	0.42600524
219	0x3e45508f	0.19269012
220	0xbe06f10f	-0.13177894
221	0xbec0a8e3	-0.3762885
222	0xbf968cde	-1.1761739
223	0xbce75110	-0.028236896
224	0x3d9fdaed	0.07805429
225	0xbd73e132	-0.059540935
226	0x3db40064	0.08789137
227	0x3e4f04f4	0.20216733
228	0x3e8f7476	0.2801854
229	0xbd49c272	-0.049257703
230	0x3debff88	0.11523348
231	0xbc7e3fd7	-0.01551815
232	0x3f0ccd45	0.55000716
233	0x3cc5370d	0.024074102
234	0x3d828cda	0.063745216
235	0xbed032ec	-0.4066385
236	0xbda936e8	-0.08262426
237	0xbb094acd	-0.0020949126
238	0xbe3a400d	-0.18188496
239	0xbe8d1733	-0.27556762
240	0xbe0ecf2c	-0.13946217
241	0x3e20f303	0.15717702
242	0x3e9b8525	0.3037502
243	0xbe69060d	-0.22756214
244	0xbe50c716	-0.20388445
245	0xbec67523	-0.38761243
246	0xbe7fa258	-0.24964273
247	0x3d1bb285	0.038012046
248	0xbe00433f	-0.12525652
249	0xbd8f3170	-0.06991851
250	0x3dcc05ff	0.09962081
251	0x3c6c1665	0.014409636
252	0xbd7dd570	-0.061971128
253	0x3d8933f1	0.0669936
254	0xb4c23b28	-3.6178358e-07
255	0x3e9e523d	0.30922118

fc.0.bias f4 [512]
0	0x3ca388db	0.019962719
1	0x3f93bae3	1.1541408
2	0xbf4231e8	-0.758574
3	0xbf71edd6	-0.94503534
4	0xbf5ec911	-0.87025553
5	0xbeed1fc6	-0.46313304
6	0x3ee4cbce	0.4468674
7	0xbeca564b	-0.3951896
8	0x3f1517f0	0.5823965
9	0x3f44d934	0.76893926
10	0xbdbe9bda	-0.0930707
11	0xbeb564bf	-0.35428426
12	0x3e07f1fc	0.13275903
13	0x3e2aefec	0.16693085
14	0x3ef323b8	0.4748819
15	0x3e0e0826	0.13870296
16	0x3ebb24b9	0.36551455
17	0xbef7a170	-0.48365355
18	0x3d850152	0.064943925
19	0x3eb11f13	0.3459402
20	0x3f56c822	0.8389913
21	0x3f419c36	0.75628984
22	0x3ea69793	0.32537517
23	0x3e43ea94	0.19132453
24	0x3f852f35	1.0405031
25	0x3e15d4c2	0.14631942
26	0x3ee7dc94	0.45285475
27	0xbf3c8511	-0.73640543
28	0x3ee0f809	0.43939236
29	0x3f660b78	0.8986125
30	0x3f301216	0.68777597
31	0x3f446cf5	0.76728755
32	0x3f280572	0.6563331
33	0x3e6ac770	0.22927642
34	0xbe3502bc	-0.17676824
35	0x3e08d753	0.1336339
36	0xbf499a8d	-0.7875145
37	0xbe921c50	-0.28537226
38	0xbf306aa1	-0.689127
39	0xbefaf6f9	-0.4901655
40	0x3eeee068	0.46655583
41	0x3f512fac	0.81713367
42	0x3f5e7e6d	0.8691166
43	0xbf59a3c7	-0.8501553
44	0x3ee6b00f	0.45056197
45	0x3f077ea4	0.52927613
46	0x3f319fbd	0.69384366
47	0xbd5ed72b	-0.05440442
48	0xbe5b542a	-0.21418825
49	0x3f248d4d	0.6427811
50	0x3e9c89be	0.3057384
51	0xbf5f12cc	-0.87138057
52	0x3f6ba734	0.92052007
53	0x3ef17ce5	0.471656
54	0xbd41e688	-0.047338992
55	0x3f48fc3f	0.78509897
56	0xbd694a1c	-0.05695544
57	0x3f15a588	0.58455706
58	0xbf593489	-0.8484579
59	0xbf50972a	-0.8148066
60	0x3f0aaffe	0.5417479
61	0x3f83feaa	1.0312092
62	0x3f2f82f8	0.6855922
63	0x3f1d8c9f	0.61542696
64	0xbf5443cc	-0.8291595
65	0x3e5129d1	0.20426108
66	0x3f6a958c	0.9163444
67	0x3f434eb2	0.76291955
68	0x3f1ea457	0.6196951
69	0x3f093242	0.5359231
70	0xbf75f9b5	-0.9608415
71	0xbe945c06	-0.28976458
72	0x3e88baac	0.2670492
73	0x3eba5a7c	0.3639716
74	0xbf5929b6	-0.8482927
75	0x3eb05684	0.34441006
76	0xbcc88884	-0.024479158
77	0x3ef89154	0.48548377
78	0x3ec0f232	0.3768478
79	0x3e1b63f0	0.15174842
80	0x3f1009eb	0.56265134
81	0xbd515ad0	-0.051111996
82	0x3e8ef4c5	0.2792112
83	0xbeb2948e	-0.34878963
84	0x3df81053	0.121124886
85	0xbeba58f6	-0.36395997
86	0x3f259a2b	0.64688367
87	0x3f7b78c6	0.9823116
88	0xbf6d23c3	-0.92632693
89	0xbee0418c	-0.43800008
90	0x3f3f663e	0.74765384
91	0x3f0a2a95	0.53971225
92	0x3f7616d8	0.96128607
93	0xbf466603	-0.7749941
94	0x3ea44a27	0.32087824
95	0xbecb8a13	-0.3975378
96	0xbe814259	-0.25245932
97	0x3eb89b89	0.36056164
98	0xbf25e8ba	-0.6480824
99	0x3e12f834	0.14352494
100	0x3ec98f20	0.39367008
101	0xbd554a16	-0.052072607
102	0xbe5fe605	-0.21865089
103	0x3bf002fc	0.0073245745
104	0xbeb64b91	-0.35604528
105	0x3eaab3ef	0.33340403
106	0x3d8012ed	0.0625361
107	0xbf4a0587	-0.78914684
108	0x3e779478	0.2417773
109	0xbeddfb7d	-0.43355933
110	0xbd083437	-0.03325292
111	0xbe7aab6e	-0.24479458
112	0xbf076f93	-0.52904624
113	0x3f3d0092	0.73828995
114	0xbede9c44	-0.43478596
115	0x3f454636	0.7706026
116	0x3da02040	0.07818651
117	0x3ef433fc	0.4769591
118	0x3e9f1634	0.31071627
119	0x3f1393d2	0.5764743
120	0xbf703221	-0.9382649
121	0xbde6fff6	-0.112792894
122	0x3f36d497	0.71418136
123	0x3dff09c8	0.124530375
124	0x3ef87de9	0.48533562
125	0x3f735a5d	0.9505976
126	0x3d136ae9	0.03599063
127	0x3dc5c6e5	0.09657077
128	0x3effed21	0.49985602
129	0xbf3050f1	-0.68873507
130	0x3f5256fb	0.8216397
131	0xbe305eba	-0.17223635
132	0x3f173fbe	0.5908164
133	0xbf118064	-0.56836534
134	0x3f76fdf4	0.9648125
135	0x3eb2e5b2	0.3494087
136	0x3ef8ae6e	0.4857058
137	0xbf2503c0	-0.6445885
138	0x3f0b8a87	0.5450825
139	0x3f930834	1.1486878
140	0x3f414ab3	0.75504607
141	0xbe6ff13d	-0.23431869
142	0x3f65cf3e	0.8976935
143	0xbead2523	-0.33817396
144	0xbe15dcd1	-0.14635016
145	0x3f1136e0	0.5672436
146	0xbed4acfb	-0.41538224
147	0xbc066287	-0.008202202
148	0x3f4cbf55	0.7997945
149	0xbe17d0bc	-0.1482572
150	0x3dd294b6	0.102822706
151	0x3f8f2763	1.1183895
152	0x3f7cfc6b	0.9882266
153	0x3dc603d3	0.09668698
154	0x3eac2d23	0.33628187
155	0x3f22471a	0.6338974
156	0xbf30d251	-0.6907092
157	0x3f00ab40	0.50261307
158	0x3e77d3fc	0.2420196
159	0x3f5770bc	0.84156394
160	0xbef4b6b1	-0.47795632
161	0xbf3b800d	-0.73242265
162	0x3f22038c	0.6328666
163	0xbda897b4	-0.0823206
164	0x3e63a5d9	0.22231235
165	0xbebd7057	-0.3699977
166	0x3f3c998c	0.73671794
167	0x3f36ac10	0.71356297
168	0x3e34b0c0	0.1764555
169	0xbe458b11	-0.19291331
170	0x3eef73eb	0.46768126
171	0x3f62812d	0.88478357
172	0x3f2acb6d	0.66716653
173	0x3d83f42b	0.06443056
174	0xbf69edf4	-0.9137871
175	0x3f5207f8	0.8204341
176	0xbf2698f8	-0.6507716
177	0x3f2cb632	0.6746551
178	0x3d866454	0.06562105
179	0x3cc85702	0.024455551
180	0x3f41ce55	0.7570546
181	0xbf4de071	-0.80420595
182	0x3ebf5f0d	0.37377205
183	0x3f79fba2	0.97649586
184	0x3e359332	0.17731932
185	0x3eb3e4c3	0.3513547
186	0x3f232ee9	0.63743454
187	0x3f3035eb	0.6883227
188	0x3e3ab0ee	0.18231556
189	0x3d3c56ad	0.045981098
190	0x3f2c0e46	0.6720928
191	0x3ea189ae	0.31550354
192	0x3dad85cd	0.08472786
193	0xbe9d160d	-0.30680886
194	0x3e3f8685	0.18703659
195	0xbe0cb871	-0.13742234
196	0xbf1913ad	-0.5979565
197	0xbef6c50a	-0.48197204
198	0x3ebe136d	0.37124196
199	0x3ec8f68f	0.3925061
200	0x3f20fd10	0.6288614
201	0x3de29ead	0.11065421
202	0x3e32a681	0.17446329
203	0x3f77591c	0.96620345
204	0x3e93454e	0.28763813
205	0x3e455a61	0.19272758
206	0xbf4fa312	-0.811082
207	0x3ecf934f	0.40542075
208	0xbd0cfbc0	-0.034419775
209	0x3e537a5b	0.20652144
210	0xbbd6b0ca	-0.0065518366
211	0x3ef8501d	0.48498622
212	0x3ee9f6f2	0.45696217
213	0x3f06e073	0.5268623
214	0x3e9dcc3d	0.30819884
215	0x3e9b2ac2	0.3030606
216	0x3f8563b8	1.0421057
217	0x3ebdeccf	0.37094733
218	0x3e99fd4a	0.30076057
219	0xbeff2cb0	-0.4983878
220	0x3f6090c4	0.87720895
221	0xbebc9c06	-0.36837786
222	0x3ef4ca32	0.47810513
223	0x3f51de08	0.8197942
224	0xbf335c6c	-0.700629
225	0xbf05ba64	-0.52237535
226	0x3f350571	0.7071143
227	0x3d045fee	0.03231805
228	0x3f40a934	0.75258183
229	0xbf3b5739	-0.73179966
230	0x3f2c107a	0.6721264
231	0x3eb507da	0.35357553
232	0xbf113835	-0.5672639
233	0x3e4c8690	0.19973207
234	0x3f897a32	1.0740416
235	0x3dbeb18c	0.09311208
236	0xbcc6ec7b	-0.024282685
237	0x3e36c64a	0.17849079
238	0x3d597194	0.053086832
239	0x3ed2cbaf	0.41171023
240	0xbe936ac5	-0.28792396
241	0x3f67cc84	0.9054644
242	0x3e92cae7	0.28670427
243	0xbdafc536	-0.08582537
244	0xbbe6c6d2	-0.007042744
245	0x3e922c1d	0.2854928
246	0x3ebc1846	0.3673727
247	0x3f48625c	0.78275084
248	0xbf06b250	-0.52615833
249	0xbed752fb	-0.42055497
250	0xbe2b4723	-0.16726355
251	0xbf361075	-0.7111886
252	0xbd0c545b	-0.034260135
253	0xbf0e26c0	-0.5552788
254	0x3e7d37b6	0.24728283
255	0x3d0e9617	0.034811106

fc_value.0.weight f4 [64, 512]
0	0x3d1b2527	0.037877228
1	0xbca2838b	-0.019838115
2	0x3d314b07	0.043284442
3	0xbd178da1	-0.037000302
4	0xbc5cf8f8	-0.013487093
5	0xbd2891df	-0.04115474
6	0xbc2d861c	-0.010591056
7	0xba86b880	-0.0010278374
8	0xbd5b034c	-0.05346994
9	0xbd57183e	-0.052513354
10	0x3d56c928	0.05243793
11	0x3aaa9459	0.0013014182
12	0xbc0018be	-0.007818399
13	0x3d21583a	0.03939078
14	0x3d490053	0.049072575
15	0xbbfe461f	-0.007759824
16	0xbd7038ac	-0.058647797
17	0xbc18ea70	-0.009333238
18	0x3b9fb42b	0.0048737726
19	0x3d1d7328	0.0384399
20	0xbcd4bd6b	-0.025969228
21	0xbc260e65	-0.010135268
22	0xbc96abe4	-0.01839251
23	0xbd4b13fe	-0.049579613
24	0x3d0c4f2a	0.034255184
25	0x3cbbe53c	0.022936456
26	0xbbb99c3a	-0.0056643756
27	0x3c5b1717	0.013372204
28	0xbcb511a5	-0.02210314
29	0xbb894127	-0.004188675
30	0xbcbf3567	-0.023340894
31	0x3d6d2706	0.057898544
32	0x3cd34c98	0.025793359
33	0x3c0ee800	0.008722305
34	0xbc41da40	-0.01183182
35	0xbc98c651	-0.018649252
36	0xbc059993	-0.008154291
37	0x3d04ac18	0.032390684
38	0xbd3b419f	-0.045716878
39	0x3ca9d177	0.020729763
40	0x3d6b6a0b	0.057474177
41	0xbd07ee95	-0.033186514
42	0xbc27cfd0	-0.010242417
43	0xbcef1f3d	-0.0291897
44	0xbcbbc2cf	-0.02292004
45	0xbccb924b	-0.024850031
46	0xbcd76649	-0.02629389
47	0x3c323008	0.010875709
48	0x3d28525e	0.041094176
49	0xbc365947	-0.011129684
50	0xbb785dd3	-0.003789772
51	0xbc69f538	-0.014279656
52	0xbd77896b	-0.060433786
53	0xbd70ac81	-0.058758263
54	0xbd55beed	-0.052184034
55	0x3d73c775	0.05951639
56	0x3c1804ad	0.009278459
57	0x3cb14b90	0.021642476
58	0xbcbb70fe	-0.022881027
59	0x3d458931	0.04822654
60	0xbd3f157b	-0.046651345
61	0x3c2e51f2	0.0106396545
62	0xbc512e2b	-0.012767355
63	0xbbf9a831	-0.007618927
64	0xbd791b00	-0.060816765
65	0x3caafbb3	0.020871973
66	0xbbbddd00	-0.0057941675
67	0x3cee2b04	0.029073246
68	0x3cae5ba4	0.021283932
69	0xbd3ad62c	-0.045614406
70	0x3cb56b00	0.022145748
71	0x3d17b0da	0.037033893
72	0xbd079aa2	-0.033106454
73	0x3d2b36ae	0.041800193
74	0xbd189fd9	-0.037261818
75	0xbcf719eb	-0.030163726
76	0x3d77eb49	0.06052712
77	0x3d0fe992	0.03513486
78	0x3cc9acf7	0.024618609
79	0xbd2081da	-0.039186336
80	0x3d62fb42	0.0554154
81	0xbc5fee8f	-0.013667717
82	0x3bfc804a	0.007705723
83	0x3b591580	0.0033124387
84	0xbd36126d	-0.044451166
85	0x3d3dce31	0.046339218
86	0x3d0a10bf	0.033707377
87	0xbd2ec740	-0.04267049
88	0xbd7cbbf4	-0.061702684
89	0xbd04ad84	-0.03239204
90	0xbd1c5db4	-0.0381753
91	0x3c4d7c4b	0.012541841
92	0x3c19a873	0.00937854
93	0xbc4b93f2	-0.01242541
94	0x3d57c6d6	0.05267986
95	0x3d0f269c	0.03494893
96	0xbd5acad7	-0.0534161
97	0x3cfcc177	0.03085397
98	0xbd3b22de	-0.04568755
99	0x3d660384	0.056155697
100	0x3d4451be	0.047929518
101	0xbd3ec799	-0.04657707
102	0xbcad10cf	-0.021126179
103	0xbd056358	-0.032565445
104	0x3c706240	0.014671862
105	0x3d3de124	0.04635729
106	0xbd06ecd5	-0.032940704
107	0xbd83399e	-0.06407474
108	0xbcbb89cb	-0.022892853
109	0x3ba9d405	0.0051827454
110	0x3cebae43	0.028769618
111	0xbcee837e	-0.029115435
112	0xbd0051a8	-0.031327873
113	0x3d27a9cd	0.04093342
114	0xbcced4f2	-0.025248025
115	0x3c0dfed8	0.0086667165
116	0x3c0ad64f	0.008473947
117	0x3bc5a0f0	0.006031148
118	0xbd61302a	-0.054977573
119	0xbc215e58	-0.009849153
120	0x3b82837e	0.0039829602
121	0xbc73105c	-0.014835443
122	0xbd0f91f4	-0.0350513
123	0x3ca42630	0.02003774
124	0x3ca3b790	0.01998499
125	0xbc801b5b	-0.015638044
126	0x3ca1e74d	0.019763613
127	0x3bd551af	0.0065099816
128	0x3d4e9532	0.050435252
129	0xbd3560e7	-0.044281866
130	0x3d1e417f	0.03863668
131	0xbc257c3b	-0.01010042
132	0x3c2e909a	0.010654593
133	0xbcc8250a	-0.024431724
134	0xbd25fc8a	-0.040524043
135	0x3d784854	0.060615852
136	0x3b4c4626	0.0031169741
137	0x3d64bd3a	0.055844523
138	0xbccf7bb3	-0.02532754
139	0x3cad5eef	0.021163432
140	0x3d589e5e	0.052885406
141	0xbcac6094	-0.021042146
142	0xbd2e9374	-0.04262109
143	0xbd2ff264	-0.04295577
144	0xbd1f43cd	-0.03888302
145	0xbc36d5b7	-0.011159352
146	0x3d5a9b8a	0.05337099
147	0xbb2ee9c0	-0.0026689619
148	0x3bc74882	0.0060816417
149	0x3b3611c0	0.0027781576
150	0xbb9419a0	-0.0045196563
151	0x3bb89c2a	0.0056338506
152	0x3ca8c336	0.020600896
153	0xbc874c56	-0.016515892
154	0xbd83141a	-0.064003184
155	0x3d30f099	0.0431982
156	0xbd2bd12e	-0.041947536
157	0x3d00b5ae	0.031423263
158	0xbc5e99ce	-0.013586475
159	0x3d6ee3c4	0.058322683
160	0xbc60c08f	-0.013717785
161	0xbc045603	-0.008077147
162	0xbc7b3464	-0.015332315
163	0xbb75ee88	-0.003752621
164	0xbd08ade3	-0.033368956
165	0xbd5de65a	-0.05417476
166	0xbc56e691	-0.013116495
167	0xbce9b419	-0.02852826
168	0x39b8dc5f	0.00035259404
169	0xbb81b277	-0.0039580422
170	0xbccacc9f	-0.024755774
171	0xbd80fbb4	-0.062980086
172	0x3cf0c43b	0.029390445
173	0x3abb1ee4	0.0014276174
174	0xbd095644	-0.033529535
175	0x3cd8832b	0.026429733
176	0x3caedc34	0.021345235
177	0xbc7bf621	-0.015378506
178	0xbcab65e1	-0.020922603
179	0x3d325ebe	0.043547384
180	0x3caf6de4	0.021414705
181	0xbc870c94	-0.01648549
182	0xbd54a92c	-0.051919147
183	0xbcafc72c	-0.021457277
184	0x3d63f921	0.05565751
185	0xbd06ac80	-0.032879353
186	0xbd0ded63	-0.034650218
187	0xbc2ddc07	-0.010611541
188	0x3d5e614e	0.054292016
189	0xbd0fc03f	-0.03509545
190	0x3c807504	0.015680797
191	0xbca4f04b	-0.020134112
192	0xbd0714d6	-0.032978855
193	0x3d0f0bda	0.034923412
194	0xbd5b63f7	-0.05356213
195	0xbd305d8a	-0.043057956
196	0xbc06c5eb	-0.008225898
197	0xbcc93837	-0.024562938
198	0x3a21ac7f	0.00061673665
199	0xbd4f9c10	-0.050685942
200	0x3d521306	0.051287673
201	0x3d6b40cc	0.057434842
202	0xbd088ee8	-0.03333941
203	0xbd710ff9	-0.058853123
204	0x3d3db014	0.0463105
205	0x3d5111ab	0.05104224
206	0xbd08c304	-0.033389106
207	0x3d1bd743	0.038047086
208	0x3c02eb3a	0.007990653
209	0xbd761a6f	-0.060083803
210	0x3d2b3353	0.041796993
211	0x3d108c58	0.035290092
212	0x3c2ce2fc	0.010552164
213	0x3d57c5e9	0.052678976
214	0x3d27bb0f	0.040949877
215	0xbd144ee9	-0.036208067
216	0x3c915645	0.017741332
217	0x3d6dd8e0	0.058068156
218	0x3d7face5	0.062420744
219	0xbcdb15d9	-0.026743816
220	0x3d03c662	0.032171614
221	0x3d70bc85	0.058773536
222	0xbcb19388	-0.021676794
223	0x3b8496db	0.0040463037
224	0xbd4174d3	-0.047230553
225	0x3d230352	0.03979809
226	0x3d5f5f2c	0.054534122
227	0xbb6deabf	-0.003630325
228	0xbd838ea2	-0.064236894
229	0xbc40b237	-0.01176124
230	0x3d4b75ae	0.049672775
231	0xbcb19630	-0.02167806
232	0x3c9145d5	0.017733494
233	0x3d500a40	0.050791025
234	0xbd5a7836	-0.0533373
235	0x3c52c3a8	0.012864031
236	0x3d66f04a	0.0563815
237	0x3d43d720	0.04781258
238	0xbd42592a	-0.047448315
239	0x3c47bf7f	0.012191652
240	0xbd0d281a	-0.034462072
241	0x3d1cc50f	0.038273867
242	0x3c72d7af	0.014821931
243	0x3bf2726e	0.007398895
244	0x3d605cd3	0.054776024
245	0xbd507c26	-0.050899647
246	0x3c1896c1	0.009313286
247	0xbd05ac3e	-0.032634966
248	0x3c09a7df	0.00840184
249	0x3c28cc18	0.010302566
250	0x3d56e447	0.052463796
251	0xbba6b498	-0.0050874464
252	0xbc826718	-0.0159183
253	0x3c9e7e84	0.019347437
254	0xbd32d509	-0.043660197
255	0xbd0718c6	-0.03298261

fc_value.0.bias f4 [64]
0	0xbb559881	-0.003259212
1	0x3cca23a4	0.024675198
2	0x3f830079	1.0234519
3	0xbd365222	-0.04451192
4	0xbccd5ca0	-0.025068581
5	0xbf327bdf	-0.6972026
6	0xbccc8c14	-0.024969138
7	0x3bf3779e	0.007430031
8	0xbf3038f0	-0.6883688
9	0xbf2f24eb	-0.6841571
10	0xbf1c7976	-0.61122835
11	0xbf3e56bd	-0.743511
12	0x3f7186f0	0.94346523
13	0xbd52481f	-0.05133831
14	0x3f801edb	1.0009416
15	0xbf3be8e7	-0.73402256
16	0x3b7b9f0e	0.0038394365
17	0xbf02e3e5	-0.5112899
18	0x3cf003e6	0.029298734
19	0x3f6e5de9	0.93112046
20	0xbe8a4803	-0.27008066
21	0xbf3305d8	-0.6993079
22	0xbf276104	-0.6538241
23	0x3f807bcc	1.003778
24	0xbe1ea9b3	-0.15494423
25	0xbc74e641	-0.014947475
26	0xbf19a190	-0.6001215
27	0xbf42204e	-0.75830543
28	0x3f822c2f	1.0169734
29	0xbf072cff	-0.52803034
30	0x3dfad9cd	0.122485735
31	0x3f3f6363	0.7476103
32	0xbbb010ac	-0.005373081
33	0xbd2143f0	-0.03937143
34	0xbf2961f2	-0.6616508
35	0x3f835f1b	1.0263399
36	0x3f74f6d3	0.95689124
37	0xbcb4de81	-0.022078754
38	0xbcb96814	-0.022632636
39	0xbf3566e7	-0.7086014
40	0x3f0166fc	0.50547767
41	0x3ca132e9	0.019677596
42	0xbf42b444	-0.76056314
43	0xbd902319	-0.07037944
44	0xbdf87f21	-0.12133623
45	0xbc946f10	-0.018119365
46	0xbf28923b	-0.6584813
47	0x3c8fb386	0.017541658
48	0x3f7c8167	0.9863495
49	0x3d55ebcb	0.052226823
50	0x3f7d4a63	0.9894163
51	0xbf375035	-0.7160676
52	0xbc390b90	-0.011294261
53	0x3c04da03	0.008108619
54	0xbf3db049	-0.74097115
55	0x3f7a0b94	0.97673917
56	0xbc88aee9	-0.016684966
57	0xbefe1232	-0.49623257
58	0xbf2d86d9	-0.67783886
59	0xbc6a5fa0	-0.014305025
60	0xbd2f4d47	-0.042798307
61	0x3c9767b3	0.018482065
62	0x3dcdbbc2	0.100455776
63	0xbcd2a157	-0.025711698

fc_value.2.weight f4 [1, 64]
0	0x3e114d08	0.14189541
1	0xbe11ec81	-0.14250375
2	0x3f361f54	0.7114155
3	0x3ce8559c	0.028361134
4	0xbff463bb	-1.9092935
5	0xbf0447d5	-0.51672107
6	0x3e308a84	0.1724034
7	0xbffb159c	-1.961597
8	0xbf5a6b64	-0.85320115
9	0xbf1bf0c9	-0.60914284
10	0xbf65983a	-0.89685404
11	0xbf24e462	-0.64410985
12	0x3f220507	0.6328892
13	0x3e09ea2c	0.13468236
14	0x3f310014	0.69140744
15	0xbf2a10f8	-0.6643214
16	0xbffba02d	-1.9658257
17	0xbf7dc4e7	-0.99128574
18	0x3df054ac	0.117349
19	0x3f41853f	0.7559394
20	0xbfa8ba80	-1.3181915
21	0xbf157016	-0.58374155
22	0xbf5c40dd	-0.86036474
23	0x3f1ed40d	0.62042314
24	0xbfb145a1	-1.3849374
25	0x3d68561e	0.056722753
26	0xbf6dd24b	-0.92899007
27	0xbf2772b2	-0.65409386
28	0x3f33773d	0.7010382
29	0xbf894859	-1.0725204
30	0xc01657a6	-2.3490996
31	0x3faaa935	1.3332888
32	0x3d90e5e7	0.070751004
33	0xbde0d219	-0.10977573
34	0xbf11533a	-0.5676762
35	0x3f2592da	0.646772
36	0x3f35cb08	0.71012926
37	0x3c9ce7c6	0.019153487
38	0x3d99e8cf	0.07515108
39	0xbf2cf6e3	-0.6756422
40	0x3facef3c	1.3510509
41	0xbe09ece8	-0.13469279
42	0xbf359478	-0.7092967
43	0xbfd55764	-1.6667295
44	0xbfca431d	-1.5801731
45	0x3d51ee9b	0.051252943
46	0xbf779667	-0.9671387
47	0x3e26e3ca	0.16297832
48	0x3f56647d	0.8374708
49	0xc00e94e7	-2.2278383
50	0x3f2f3498	0.68439627
51	0xbf5d1086	-0.8635334
52	0xbc804a0e	-0.015660312
53	0xc011069d	-2.2660286
54	0xbf0419f7	-0.5160212
55	0x3f393d66	0.7235931
56	0x3db52834	0.08845559
57	0xbf8a8bd5	-1.0823923
58	0xbf1e8e21	-0.6193562
59	0x3dacc5bb	0.084361516
60	0xbdbaa0ca	-0.09112699
61	0x3dcb924f	0.099400155
62	0xc00d4b3b	-2.2077167
63	0xbd82a050	-0.063782334

fc_adv.0.weight f4 [64, 512]
0	0xbc9c74c7	-0.019098653
1	0xbb7b2869	-0.0038323647
2	0xbd371fa4	-0.04470791
3	0x3d5244b4	0.05133505
4	0x3b9b04c7	0.004730794
5	0xbe841ded	-0.25804082
6	0xbcb6857b	-0.022280445
7	0x3e63007e	0.22168157
8	0x3e9f4cfb	0.3111342
9	0xbd6584e9	-0.056034956
10	0xbd1297e5	-0.03578939
11	0xbe25cef3	-0.16192226
12	0x3d11dfd1	0.03561384
13	0xbeaec837	-0.34137127
14	0x3f12ec5b	0.573919
15	0x3e900dff	0.28135678
16	0xbdf96bd9	-0.121787734
17	0xbf02bc7b	-0.5106885
18	0x3f164808	0.5870366
19	0x3e9982db	0.29982647
20	0xbbf0515d	-0.007333918
21	0x3c210015	0.00982668
22	0x3e26811f	0.16260193
23	0xbe7fe8ec	-0.24991196
24	0xbbfd1ef3	-0.0077246367
25	0x3d6275f2	0.055288263
26	0x3e904f8d	0.28185692
27	0xbd8e51a0	-0.069491625
28	0xbea00662	-0.3125487
29	0x3dc0b402	0.09409334
30	0xbd862f37	-0.06551974
31	0xbe6f1da0	-0.23351145
32	0x3ca4e535	0.020128826
33	0xbcb8e8ce	-0.022571947
34	0xbcfb1097	-0.03064756
35	0x3eaa68b7	0.33283016
36	0xbe8c3dc9	-0.27390888
37	0x3c2ead2e	0.010661406
38	0xbdcd3a1e	-0.100208506
39	0xbe3ac31e	-0.18238494
40	0x3f42adc3	0.7604639
41	0xbd7bd6af	-0.061484035
42	0xbc9b267d	-0.018939251
43	0x3ea93b69	0.3305314
44	0xbfab1717	-1.3366421
45	0xbce43f49	-0.027862208
46	0xbe8e222f	-0.27760455
47	0x3cdf2880	0.027240992
48	0x3e8cade2	0.27476412
49	0xbdfc4797	-0.12318342
50	0xbe05543e	-0.13020417
51	0xbe4e69e6	-0.20157585
52	0x3dc5825c	0.09644005
53	0xbe12c39c	-0.14332432
54	0x3ef18ad8	0.47176242
55	0x3ee88933	0.45417175
56	0x3dd616a3	0.10453536
57	0xbd630690	-0.05542618
58	0xbe0438ae	-0.12912247
59	0xbddd3c1a	-0.10802479
60	0x3dccc608	0.09998709
61	0x3a9c644b	0.0011931745
62	0xbd7a7f14	-0.061156347
63	0x3e4c5717	0.19955097
64	0xbf0c388e	-0.54773796
65	0x3f00f086	0.5036701
66	0x3e944841	0.28961375
67	0xbdaa0b82	-0.08302976
68	0xbe1f2051	-0.15539671
69	0x3dad9fb5	0.08477727
70	0xbe089801	-0.13339235
71	0x3e5aed1a	0.2137951
72	0x3e4f6637	0.20253836
73	0xbe5f6498	-0.21815717
74	0xbdcf9870	-0.10136497
75	0xbeb42b94	-0.35189497
76	0x3f47bf38	0.7802615
77	0xbd88764c	-0.06663188
78	0xbe1c1138	-0.15240943
79	0x3f1184bb	0.56843156
80	0xbe292da7	-0.16521321
81	0x3dbeda7f	0.093190186
82	0x3e9c0187	0.30469915
83	0xbd50c326	-0.050967358
84	0x3dad46cb	0.08460768
85	0x3c9e6690	0.019336015
86	0x3d514ecf	0.05110055
87	0xbd8deb75	-0.069296755
88	0x3dec1c88	0.115288794
89	0x3c61b462	0.013775917
90	0x3e6fc373	0.23414402
91	0x3ebc98a8	0.36835217
92	0xbd7dbb82	-0.0619464
93	0x3c4a2c3a	0.012339646
94	0x3e0a143e	0.13484284
95	0x3e2f208a	0.17102256
96	0x3f02bf32	0.5107299
97	0x3e80fb56	0.25191754
98	0x3e43edfb	0.19133751
99	0x3dd84676	0.10560314
100	0xbf61c81d	-0.88195974
101	0xbe78a77e	-0.24282643
102	0x3de2bd81	0.11071301
103	0x3ee59420	0.44839573
104	0x3e19d9ac	0.15024441
105	0x3e9e59e3	0.30927953
106	0x3e3b85e7	0.18312798
107	0xbea81096	-0.32825154
108	0xbdad102e	-0.08450352
109	0x3ea21a98	0.31660914
110	0x3f8886a0	1.0666084
111	0xbc69fe14	-0.014281768
112	0xbe1ed92b	-0.1551253
113	0x3c1a4ec2	0.009418191
114	0xbe847551	-0.25870755
115	0x3d3b45b9	0.04572079
116	0xbf047f22	-0.5175649
117	0x3e975a05	0.29560867
118	0x3e4f8150	0.20264173
119	0xbe09217f	-0.13391684
120	0x3d8145cc	0.06312141
121	0x3c2d8c2a	0.0105925
122	0x3d642450	0.055698693
123	0x3eb19ffa	0.34692365
124	0xbeb4ba27	-0.35298273
125	0xbc7fa8fe	-0.015604256
126	0x3d8dd815	0.0692598
127	0x3d040dd3	0.032239746
128	0x3f0b1c3d	0.54339963
129	0xbe819249	-0.2530692
130	0x3c64bef0	0.013961539
131	0x3e683a5d	0.22678514
132	0x3e925d35	0.28586736
133	0xbe597ade	-0.21238276
134	0x3d781084	0.060562626
135	0x3da18931	0.07887495
136	0xbe6a857d	-0.22902484
137	0xbe39fb00	-0.18162155
138	0xbe4e8cc1	-0.20170881
139	0xbda9bb5e	-0.082876906
140	0xbdef745f	-0.11692118
141	0x3e1de601	0.15419771
142	0xbd90cb7c	-0.070700616
143	0xbf32ff5d	-0.69920903
144	0x3e801875	0.2501866
145	0x3d8f5e27	0.0700038
146	0x3e2e0697	0.16994701
147	0xbf202381	-0.62554175
148	0xbd10b59e	-0.035329454
149	0xbb88ef7f	-0.004178941
150	0xbf604638	-0.87607145
151	0xbdc35627	-0.09537917
152	0xbce86fd2	-0.028373633
153	0x3ed487d4	0.4150988
154	0x3ea0061c	0.3125466
155	0xbb7f7eef	-0.003898557
156	0xbeaf8e40	-0.34288216
157	0xbe273616	-0.16329226
158	0x3de4fbd6	0.111808464
159	0x3dd95f71	0.10613907
160	0x3d8c32b9	0.06845612
161	0xbe2bc020	-0.16772509
162	0x3e71b882	0.2360554
163	0x3ecdc7f0	0.40191603
164	0x3ea985ed	0.3310999
165	0x3e53aa72	0.20670488
166	0xbb96189c	-0.0045805704
167	0x3e281fcc	0.1641838
168	0xbd003edb	-0.031309944
169	0xbe413be1	-0.18870498
170	0xbe789eb3	-0.24279289
171	0x3e458c5e	0.19291827
172	0xbe0cc478	-0.13746822
173	0x3dc585ed	0.09644685
174	0xbe92225a	-0.28541833
175	0x3e958b07	0.29207632
176	0x3e76a641	0.24086858
177	0x3dbec7e9	0.093154736
178	0xbc3c9df1	-0.011512266
179	0xbdee7eea	-0.11645301
180	0x3e5c42a2	0.21509793
181	0x3c0c5c40	0.008566916
182	0x3e09cd52	0.1345723
183	0x3c202d3f	0.0097764125
184	0x3d8d08df	0.06886458
185	0xbeef0b4e	-0.46688312
186	0x3e826e25	0.2547466
187	0xbcbb2389	-0.022844093
188	0x3d73317e	0.05937337
189	0xbee5c445	-0.44876304
190	0xbe359f8d	-0.17736645
191	0xbdded42a	-0.10880311
192	0xbf71dc2e	-0.9447659
193	0xbe0005c6	-0.12502202
194	0x3ddcfcac	0.10790381
195	0xbf2230ad	-0.63355523
196	0xbe51747d	-0.20454593
197	0xbe0e120a	-0.13874069
198	0x3f0d9b5e	0.55315197
199	0x3d099e1d	0.033598054
200	0xbec3d0c7	-0.38245222
201	0xbef3ff93	-0.47655925
202	0xbe56ce63	-0.20977168
203	0xbd0b5e53	-0.0340255
204	0x3f03c192	0.5146724
205	0xbf21fa19	-0.63272244
206	0xbe64a4e3	-0.22328524
207	0xbe0d9e67	-0.13829957
208	0x3e2cee1e	0.1688771
209	0xbdb9be8b	-0.09069546
210	0xbf5a6cae	-0.8532208
211	0xbdc7cc5a	-0.09755774
212	0x3ec6255b	0.38700375
213	0xbc2de73f	-0.010614215
214	0xbd7ff24e	-0.06248694
215	0x3e0500ee	0.12988636
216	0x3c8edffb	0.017440787
217	0x3e8a3b88	0.26998544
218	0x3df59b63	0.11992528
219	0xbe2b63b4	-0.16737252
220	0x3e0a9991	0.13535143
221	0xbf3c4fa5	-0.7355903
222	0x3e6ca4f8	0.23109806
223	0x3d936683	0.07197287
224	0xbd448582	-0.047978885
225	0x3defb3a8	0.117041886
226	0x3d6816c8	0.05666235
227	0x3f43bd33	0.7646057
228	0x3d056605	0.032567997
229	0x3d5d7dce	0.054075055
230	0xbe20e60e	-0.15712759
231	0xbe23c2a6	-0.15992221
232	0x3d8a521b	0.067539416
233	0x3e2c3af1	0.1681936
234	0xbd0c222a	-0.03421227
235	0x3d5e87b0	0.05432862
236	0x3f2651a4	0.64968324
237	0xbe691558	-0.22762048
238	0xbd3f2bc5	-0.0466726
239	0xbd91e547	-0.07123809
240	0x3e06f755	0.13180287
241	0xbd371d72	-0.044705816
242	0xbecc2ec6	-0.39879435
243	0x3de62ac2	0.11238624
244	0xbedc0eb0	-0.42979956
245	0x3dc12cad	0.09432349
246	0x3e487d70	0.195791
247	0xbd74b3cd	-0.059741784
248	0x3eb6b4ec	0.35684907
249	0x3dcdd175	0.100497164
250	0x3d50bd3d	0.05096172
251	0x3d1ef70b	0.038809817
252	0x3ed2a7c9	0.41143635
253	0x3da44aac	0.08022055
254	0x3e414af5	0.1887625
255	0x3dffe6fe	0.1249523

fc_adv.0.bias f4 [64]
0	0x3dc5ca37	0.0965771
1	0x3d2eca36	0.042673312
2	0x3e3fc4e4	0.18727452
3	0xbe025d56	-0.12730917
4	0xbe067718	-0.13131368
5	0xbd54ecb7	-0.05198356
6	0xbdd64663	-0.10462644
7	0xbc58de6d	-0.013236624
8	0xbe3a7e9c	-0.1821236
9	0xbd017455	-0.031605083
10	0x3e1340a8	0.14380133
11	0xbd45b127	-0.04826465
12	0x3d31ee33	0.043440055
13	0x3d8c9efa	0.0686626
14	0xbcb16de9	-0.021658855
15	0x3d3db38b	0.046313804
16	0x3d84ae9a	0.06478615
17	0xbd8a306a	-0.067475155
18	0x3d21c556	0.039494835
19	0x3c2219cd	0.009893847
20	0x3d48f5cf	0.049062546
21	0x3c29ccb0	0.010363743
22	0x3d91952a	0.07108529
23	0x3df9a298	0.121892154
24	0xbd2e8774	-0.042609647
25	0x3b1cadb6	0.002390725
26	0xbd2e11ac	-0.042497322
27	0x3e0367d3	0.12832575
28	0x3c8cd78c	0.017192625
29	0x3b25b613	0.0025285527
30	0xbc5ada41	-0.0133577
31	0xbda6fc5e	-0.08153604
32	0xbceab082	-0.028648619
33	0x3d911b29	0.070852585
34	0x3de4fed3	0.11181416
35	0xbdd03ba1	-0.10167623
36	0x3c281c23	0.010260615
37	0xbd37bdf3	-0.044858884
38	0xbdd4a70a	-0.10383423
39	0xbd7f067f	-0.062262055
40	0xbe17c465	-0.14821012
41	0xbd00fd78	-0.031491727
42	0xbdbe105c	-0.09280464
43	0xbb1e7c72	-0.0024183062
44	0xbc87bd61	-0.016569795
45	0x39d16d75	0.00039945138
46	0x3d9203cb	0.0712963
47	0xbd2a412c	-0.04156606
48	0x3cd9962c	0.026560865
49	0xbc457f0d	-0.012054217
50	0x3d3f8b57	0.046763744
51	0x3cf727b1	0.030170294
52	0x3c1318b8	0.008978061
53	0x3c21b4dd	0.009869781
54	0x3d82c281	0.06384755
55	0x3da5fb0e	0.081045255
56	0x3d1ad4bd	0.03780054
57	0x3984ff6f	0.00025367315
58	0x3c7880f8	0.015167467
59	0x3e10c1c5	0.14136417
60	0xbde6814f	-0.112551324
61	0x3dafddff	0.08587264
62	0x3d6503f3	0.05591197
63	0xbd09eede	-0.033675067

fc_adv.2.weight f4 [5, 64]
0	0xbf756b9a	-0.9586731
1	0x3fd2111d	1.6411473
2	0xbe1df926	-0.15427074
3	0x3e5a9f80	0.21349907
4	0x3ee1ba1b	0.440873
5	0x3d4ac888	0.049507648
6	0xbead0ad4	-0.33797324
7	0x3f554177	0.83303016
8	0x3eb11e5e	0.3459348
9	0x3f075f29	0.5287958
10	0xbefbe9e9	-0.49201897
11	0x3e0690f6	0.13141236
12	0xbe9bb9af	-0.30415103
13	0xbf75477c	-0.958122
14	0xbf46fa73	-0.77725905
15	0xbf719266	-0.9436401
16	0x3e455d29	0.19273819
17	0x3f0c1d6c	0.54732394
18	0xbf26c284	-0.6514056
19	0xbef0cd3c	-0.4703158
20	0xbf5eff55	-0.87108356
21	0x3f67f07d	0.9060133
22	0xbf256f40	-0.6462288
23	0xbf131eda	-0.5746895
24	0xbbb68e74	-0.005571181
25	0xbdca3043	-0.098724864
26	0xbda23fd1	-0.07922328
27	0xbe6fbe1c	-0.23412365
28	0x3f02346e	0.5086125
29	0x3f8226fb	1.0168146
30	0xbd89c381	-0.067267425
31	0x3e60dd6b	0.21959464
32	0xbe216faa	-0.15765253
33	0x3f870c4a	1.0550625
34	0xbdf96169	-0.12176783
35	0x3f063696	0.5242704
36	0x3cf69ed5	0.030105034
37	0xbb64b426	-0.0034897416
38	0x3f2b76db	0.66978234
39	0x3e87c3cd	0.26516572
40	0x3e094e9e	0.13408896
41	0x3d808ab6	0.06276457
42	0x3ccdf822	0.025142733
43	0x3d81b0cd	0.0633255
44	0xbf575dd6	-0.8412756
45	0xbe374585	-0.17897613
46	0xbf0b25de	-0.54354656
47	0x3e23b164	0.15985638
48	0xbf13ce69	-0.5773683
49	0x3de85d33	0.11345901
50	0x3ea040cd	0.3129944
51	0xbf2cbb4e	-0.67473304
52	0x3c51a556	0.012795767
53	0xbe1cc955	-0.15311177
54	0x3f35e5dd	0.7105387
55	0x3fa9cadc	1.3265033
56	0x3e6c2508	0.23061001
57	0x3bb95d6a	0.005656888
58	0xbd9d914d	-0.076937295
59	0xbe905016	-0.281861
60	0x3eb0ee51	0.3455682
61	0xbf4c7856	-0.7987112
62	0x3c9a5c5f	0.018842874
63	0x3d1607ef	0.03662866
64	0xbdb2af0f	-0.08724796
65	0x3f4162c2	0.7554132
66	0xbf210c1d	-0.6290911
67	0xbf086c87	-0.532906
68	0x3e6bc701	0.23025133
69	0x3d0f0f96	0.034926973
70	0xbf7e5653	-0.9935047
71	0x3f23c131	0.6396666
72	0x3f493003	0.78588885
73	0xbf0ec53a	-0.55769694
74	0x3e13043a	0.14357081
75	0xbed92208	-0.42408776
76	0x3e85248d	0.2600445
77	0xbd79b944	-0.0609677
78	0xbe8151e7	-0.252578
79	0xbdd97b03	-0.10619166
80	0xbe67e957	-0.22647606
81	0x3f3e47f7	0.7432856
82	0xbe02ef05	-0.12786491
83	0xbe6386d7	-0.22219406
84	0xbf850e24	-1.039494
85	0x3eaee7f6	0.34161347
86	0xbed16f7b	-0.40905365
87	0xbe32a85b	-0.17447035
88	0xbf5a32e8	-0.85233927
89	0x3c3fb575	0.011700978
90	0xb9a64711	-0.00031714936
91	0x3e05e7eb	0.13076751
92	0x3f509da3	0.81490535
93	0x3f0c5535	0.54817516
94	0x3e3b1fda	0.18273869
95	0x3ee0493c	0.43805873
96	0x3bf935ad	0.0076052756
97	0x3df1ec97	0.11812704
98	0xbee42c40	-0.4456501
99	0x3e3fd063	0.18731837
100	0x3f047b5c	0.5175073
101	0xbe23cee0	-0.15996885
102	0x3e8adf9d	0.27123728
103	0xbe00a872	-0.12564257
104	0x3c875d8b	0.016524097
105	0x3e1e6f2b	0.15472095
106	0xbf43cd01	-0.76484686
107	0xbd962d56	-0.07332866
108	0xbed58ca4	-0.41708863
109	0xbf7feb80	-0.9996872
110	0xbda86a56	-0.08223407
111	0x3e97efdc	0.29675186
112	0xbf42e242	-0.7612649
113	0xbdcc35f7	-0.099712305
114	0x3f6a941e	0.9163226
115	0x3d89f559	0.067362495
116	0xbe1e1bd1	-0.15440299
117	0xbf6932a8	-0.9109292
118	0x3ed4b502	0.41544348
119	0xbe8ed39b	-0.27895817
120	0x3ef0a7d8	0.47003055
121	0x3dd55501	0.10416604
122	0xbdd89dfc	-0.10577008
123	0x3e396eef	0.18108724
124	0x3df488a7	0.11940127
125	0xbe1e38a6	-0.15451297
126	0x3f3bf4f5	0.7342065
127	0xbb6510e2	-0.003495269
128	0x3f0b07b9	0.5430866
129	0x3e413866	0.1886917
130	0x3e71c00f	0.23608421
131	0xbef0b02b	-0.47009405
132	0xbda04f47	-0.07827621
133	0x3d4a0001	0.04931641
134	0xbf0daf17	-0.5534529
135	0xbbbd7e41	-0.005782873
136	0x3e11bdd4	0.1423257
137	0xbec4b85c	-0.38421905
138	0xbe66adf8	-0.22527301
139	0xbed0b4eb	-0.4076303
140	0x3f8e90e1	1.1137964
141	0xbed086ad	-0.4072775
142	0xbdf94f6e	-0.12173353
143	0x3e811daa	0.25217944
144	0x3e71061a	0.23537484
145	0xbe8dbf7f	-0.27685162
146	0xbe0f2466	-0.13978729
147	0xbb88dbfb	-0.0041766143
148	0x3f517d49	0.81831795
149	0x3ea1287d	0.31476203
150	0xbe682ab9	-0.22672547
151	0x3d7fde26	0.062467717
152	0xbe87fd95	-0.26560655
153	0xbd2a4c63	-0.041576754
154	0x3d83fdec	0.06444916
155	0xbde14665	-0.10999755
156	0x3d0016f6	0.031271897
157	0xbece8d9b	-0.4034241
158	0x3e2545a2	0.16139844
159	0xbca96e4f	-0.020682482
160	0x3e190d9f	0.14946602
161	0xbd1b5d60	-0.037930846
162	0x3e6b8816	0.23001131
163	0xbe69ce8a	-0.22832695
164	0xbcaec05e	-0.021331962
165	0xbc7cd08f	-0.015430584
166	0xc011dc15	-2.2790577
167	0xbcaa977f	-0.020824192
168	0xbec45ce5	-0.38352123
169	0x3de2d342	0.110754505
170	0xbf3a454a	-0.72761977
171	0x3dde3672	0.10850228
172	0xbd862bf3	-0.065513514
173	0x3dc3ac8d	0.09554396
174	0xbe3f211a	-0.18664971
175	0x3e8c50c5	0.27405372
176	0xbe5c4743	-0.21511559
177	0xbc8ed8eb	-0.017437419
178	0x3e13b6af	0.14425157
179	0x3eacc8cf	0.33746955
180	0xbe8c7fe4	-0.27441323
181	0x3f0afd80	0.5429306
182	0x3f15e141	0.58546835
183	0xbde56c30	-0.11202276
184	0xbfb3421e	-1.4004552
185	0xbc2714a4	-0.010197792
186	0xbe25b558	-0.16182458
187	0x3c327511	0.010892169
188	0x3d690e63	0.056898486
189	0x3e1172a6	0.14203891
190	0xbe97e298	-0.29665065
191	0x3e03226b	0.12806098
192	0x3f2ab1af	0.66677374
193	0xbf5278db	-0.8221566
194	0x3e538ad4	0.20658427
195	0xc003e580	-2.0608826
196	0xbe11be28	-0.14232695
197	0x3de3b430	0.111183524
198	0xbcfebf31	-0.031097027
199	0xbf115659	-0.5677238
200	0xbe414ba5	-0.18876512
201	0xbe507df0	-0.20360541
202	0x3dae1726	0.08500509
203	0xbe2a0fa3	-0.16607527
204	0xbf6edc9d	-0.9330538
205	0x3e913542	0.28360945
206	0xbd1b3597	-0.037892904
207	0x3e048211	0.12940241
208	0xbeb2e575	-0.34940687
209	0xbfafd72a	-1.3737538
210	0x3ea9f418	0.3319404
211	0x3d6cc376	0.057803594
212	0xbbf2fb3b	-0.007415203
213	0x3c22d1f1	0.009937749
214	0x3edda1ec	0.432876
215	0x3e24d983	0.16098599
216	0x3e7d7561	0.24751808
217	0xbdde1ea7	-0.1084569
218	0xbd5567bf	-0.052100893
219	0x3e3a54a4	0.1819635
220	0xbe2eea33	-0.17081527
221	0xbf6ebd91	-0.93258005
222	0x3dbc08f5	0.09181396
223	0x3d80e34e	0.06293355
224	0x3d5c4341	0.053775076
225	0xbecfc029	-0.40576294
226	0x3e87cbd9	0.2652271
227	0xbdd4bbb6	-0.103873655
228	0xbe665b11	-0.22495677
229	0xbd51784b	-0.05114011
230	0x3f030946	0.51186025
231	0xbe4cfc4f	-0.20018123
232	0xbd7e317e	-0.06205892
233	0xbdefb9c4	-0.11705354
234	0x3af4bc03	0.0018671755
235	0xbd693a7b	-0.056940537
236	0x3e9aa81c	0.30206382
237	0x3d8c4398	0.0684883
238	0x3e835091	0.25647405
239	0xbe61f2f2	-0.22065333
240	0x3f9ffae1	1.2498437
241	0x3deb427c	0.1148729
242	0xbf88bd9b	-1.0682863
243	0x3eb39652	0.35075623
244	0xbc62c99b	-0.013842012
245	0x3f4a41eb	0.7900683
246	0xbea9a5cd	-0.33134308
247	0x3fa38415	1.2774683
248	0x3f81051e	1.0079687
249	0x3df14459	0.117806144
250	0x3d926ef0	0.07150066
251	0xbcdcfcfb	-0.0269761
252	0xbd8604dc	-0.065438956
253	0x3e9a9f2d	0.30199566
254	0x3f688552	0.9082843
255	0xbd0fdcb2	-0.03512258

fc_adv.2.bias f4 [5]
0	0xbe565d6e	-0.20934078
1	0xbe21732d	-0.15766592
2	0xbd786dec	-0.060651705
3	0x3e072e0b	0.13201158
4	0x3e152414	0.14564544
